catroid/src/main/assets/model_lite_age_q.tflite (tflite, 414528 bytes, 30 tensors)

model/dense/BiasAdd/ReadVariableOp/resource f2 [256]
000000 00 00 28 01 8e 89 7c 8c 99 89 b7 90 59 8b 00 00
       0.0 1.764e-05 -0.0001695 -0.0002737 -0.0001708 -0.0005755 -0.0002242 0.0
000010 21 09 00 00 2f 81 33 01 f7 80 5e 89 02 01 21 8e
       0.0001565 0.0 -1.806e-05 1.83e-05 -1.47e-05 -0.0001638 1.54e-05 -0.000374
000020 00 80 00 8d 00 00 00 80 b5 82 00 80 42 8e 3f 89
       -0.0 -0.0003052 0.0 -0.0 -4.13e-05 -0.0 -0.000382 -0.0001601
000030 00 00 00 80 00 80 3c 8c 00 80 00 80 b8 00 e0 90
       0.0 -0.0 -0.0 -0.0002584 -0.0 -0.0 1.097e-05 -0.000595
000040 03 80 00 80 3c 8e 88 09 05 8c 8f 8d 12 85 55 8a
       -2e-07 -0.0 -0.0003805 0.0001688 -0.0002453 -0.0003393 -7.737e-05 -0.0001932
000050 00 00 00 80 47 84 00 80 00 07 52 85 00 80 33 81
       0.0 -0.0 -6.527e-05 -0.0 0.0001068 -8.12e-05 -0.0 -1.83e-05
000060 b4 00 00 80 00 80 6d 81 8d 8c 3e 01 00 80 00 80
       1.07e-05 -0.0 -0.0 -2.176e-05 -0.0002778 1.895e-05 -0.0 -0.0
000070 b8 80 9a 82 57 8f 13 01 6e 09 00 00 7f 87 b3 8a
       -1.097e-05 -3.97e-05 -0.000448 1.64e-05 0.0001657 0.0 -0.0001144 -0.0002044
000080 00 00 00 00 78 8e ee 83 00 80 00 80 ac 81 00 00
       0.0 0.0 -0.0003948 -5.996e-05 -0.0 -0.0 -2.55e-05 0.0
000090 46 80 a3 8c 00 80 1d 8b 0f 8b 00 00 b7 89 00 00
       -4.2e-06 -0.000283 -0.0 -0.0002171 -0.0002154 0.0 -0.0001744 0.0
0000a0 e6 88 93 8a 00 00 00 00 00 80 9d 89 e6 8e 00 00
       -0.0001495 -0.0002006 0.0 0.0 -0.0 -0.0001713 -0.000421 0.0
0000b0 00 80 00 80 00 00 f7 04 00 80 d2 0e 67 0b 00 00
       -0.0 -0.0 0.0 7.576e-05 -0.0 0.0004163 0.0002259 0.0
0000c0 2a 83 51 8a fc 8b 00 00 00 80 ea 8c d9 85 00 80
       -4.83e-05 -0.0001928 -0.0002437 0.0 -0.0 -0.0003 -8.92e-05 -0.0
0000d0 57 82 2c 89 29 8d c3 8e 00 80 6c 01 8f 8e 00 80
       -3.57e-05 -0.0001578 -0.000315 -0.0004127 -0.0 2.17e-05 -0.0004003 -0.0
0000e0 00 80 00 80 00 80 63 8c 00 00 ae 88 00 80 4a 07
       -0.0 -0.0 -0.0 -0.0002677 0.0 -0.0001428 -0.0 0.0001112
0000f0 00 80 d3 83 00 80 00 00 00 00 ee 09 02 87 00 00
       -0.0 -5.835e-05 -0.0 0.0 0.0 0.000181 -0.00010693 0.0
000100 00 00 7b 8e 2a 89 26 0a a1 0e 69 86 4f 83 c3 8c
       0.0 -0.0003955 -0.0001576 0.0001876 0.0004046 -9.78e-05 -5.05e-05 -0.0002906
000110 00 00 00 00 00 00 51 8f 73 8e bc 86 f3 88 00 80
       0.0 0.0 0.0 -0.0004466 -0.0003936 -0.00010276 -0.000151 -0.0
000120 a9 81 7d 83 00 80 00 00 00 00 00 00 00 80 00 80
       -2.533e-05 -5.32e-05 -0.0 0.0 0.0 0.0 -0.0 -0.0
000130 61 80 00 00 00 00 2e 8f 55 8a 00 00 00 00 eb 8a
       -5.8e-06 0.0 0.0 -0.0004382 -0.0001932 0.0 0.0 -0.0002111
000140 ad 0c 00 00 9d 91 e0 8e 8f 81 00 80 ac 04 fc 8d
       0.0002854 0.0 -0.000685 -0.0004196 -2.38e-05 -0.0 7.13e-05 -0.0003653
000150 29 89 9f 82 00 80 22 8e 61 8a 00 80 dc 09 a7 09
       -0.0001575 -4e-05 -0.0 -0.0003743 -0.0001947 -0.0 0.0001788 0.0001725
000160 00 00 34 8a 66 88 00 80 80 04 00 00 47 92 df 00
       0.0 -0.0001893 -0.0001342 -0.0 6.866e-05 0.0 -0.0007663 1.33e-05
000170 00 80 2d 88 00 00 5b 02 00 80 36 88 cc 06 9d 8d
       -0.0 -0.0001274 0.0 3.594e-05 -0.0 -0.0001285 0.0001037 -0.0003426
000180 17 0c 00 80 bc 0c 00 80 57 05 b3 8c a4 07 c6 8f
       0.0002496 -0.0 0.000289 -0.0 8.15e-05 -0.0002868 0.0001166 -0.0004745
000190 bc 04 f7 0d 38 02 34 8d 97 86 00 00 00 80 00 80
       7.224e-05 0.000364 3.386e-05 -0.0003176 -0.00010055 0.0 -0.0 -0.0
0001a0 cb 02 37 8c ef 02 4f 88 00 00 00 80 2d 8d fd 8a
       4.26e-05 -0.0002573 4.476e-05 -0.0001315 0.0 -0.0 -0.000316 -0.0002133
0001b0 3d 8b 1e 8e 8e 8a 00 00 00 80 63 8c 00 80 00 00
       -0.0002209 -0.0003734 -0.0002 0.0 -0.0 -0.0002677 -0.0 0.0
0001c0 23 90 3c 82 ca 90 00 00 00 00 58 00 43 0b 63 85
       -0.000505 -3.41e-05 -0.0005846 0.0 0.0 5.25e-06 0.0002216 -8.22e-05
0001d0 46 05 57 07 04 0a 5d 85 00 80 6d 00 3e 86 3b 06
       8.047e-05 0.000112 0.0001836 -8.184e-05 -0.0 6.5e-06 -9.525e-05 9.507e-05
0001e0 00 80 b9 8c d5 02 00 80 81 8f 00 00 7a 85 40 03
       -0.0 -0.0002882 4.32e-05 -0.0 -0.000458 0.0 -8.357e-05 4.96e-05
0001f0 00 00 a9 8b 63 8a 46 87 00 00 2a 86 54 85 00 80
       0.0 -0.0002338 -0.0001949 -0.000111 0.0 -9.406e-05 -8.13e-05 -0.0

model/dense_1/BiasAdd/ReadVariableOp/resource f2 [64]
000000 2c 19 ae 18 f9 17 e6 18 b0 16 64 17 64 18 6a 19
       0.002525 0.002285 0.001946 0.002392 0.001633 0.001804 0.002144 0.002644
000010 33 1b f3 19 31 17 a1 16 19 19 07 19 37 19 e5 19
       0.003515 0.002905 0.001756 0.001618 0.00249 0.002455 0.002546 0.002878
000020 0b 16 1f 17 c2 18 4a 17 5c 18 c1 18 48 18 ad 17
       0.001475 0.001739 0.002323 0.00178 0.002129 0.002321 0.00209 0.001874
000030 4b 19 a6 18 68 17 e5 19 36 18 35 16 c1 17 eb 19
       0.002584 0.00227 0.001808 0.002878 0.002056 0.001515 0.001893 0.00289
000040 00 80 d3 16 4d 19 38 19 2b 15 73 17 17 18 6e 19
       -0.0 0.001666 0.002588 0.002548 0.001262 0.001819 0.001997 0.002651
000050 81 18 a7 17 c8 17 bc 17 e0 16 fb 19 8b 15 2e 17
       0.0022 0.001868 0.0019 0.001888 0.001678 0.00292 0.001353 0.001753
000060 30 18 ae 19 64 18 08 19 2b 18 62 16 9e 80 00 80
       0.002045 0.002773 0.002144 0.002457 0.002035 0.001558 -9.4e-06 -0.0
000070 2b 19 c4 18 ad 17 8f 17 3d 19 b9 17 e6 17 cf 18
       0.002523 0.002327 0.001874 0.001845 0.002558 0.001885 0.001928 0.002348

model/dense_2/BiasAdd/ReadVariableOp/resource f2 [32]
000000 05 20 30 1e aa 1e 0e 20 04 20 71 1c 13 1f 4c 1f
       0.00785 0.006042 0.006508 0.00792 0.00784 0.004337 0.00691 0.007126
000010 4c 1f 9f 1e c6 1d 88 1f 04 1f 24 20 c8 1f 25 1e
       0.007126 0.006466 0.00564 0.007355 0.00685 0.00809 0.0076 0.006
000020 35 1f c7 1e 08 20 5f 1f bf 1e b4 1f 3d 1e c9 1f
       0.00704 0.00662 0.00787 0.0072 0.006588 0.007523 0.006092 0.007603
000030 92 1f 30 14 5e 1f 1e 1f 27 20 60 1e 06 20 8c 1f
       0.007393 0.001022 0.007195 0.00695 0.00811 0.006226 0.00786 0.00737

model/dense/MatMul f2 [256, 256]
000000 00 80 00 80 00 80 00 00 00 80 00 80 00 80 00 00
       -0.0 -0.0 -0.0 0.0 -0.0 -0.0 -0.0 0.0
000010 00 80 00 80 00 00 00 00 00 80 00 80 00 80 00 80
       -0.0 -0.0 0.0 0.0 -0.0 -0.0 -0.0 -0.0
000020 00 80 00 80 00 80 00 80 00 80 00 80 00 80 00 80
       -0.0 -0.0 -0.0 -0.0 -0.0 -0.0 -0.0 -0.0
000030 00 00 00 00 00 80 00 80 00 80 00 80 00 80 00 00
       0.0 0.0 -0.0 -0.0 -0.0 -0.0 -0.0 0.0
000040 00 80 00 80 00 80 00 80 00 80 00 80 00 00 00 00
       -0.0 -0.0 -0.0 -0.0 -0.0 -0.0 0.0 0.0
000050 00 00 00 80 00 80 00 80 00 00 00 80 00 80 00 80
       0.0 -0.0 -0.0 -0.0 0.0 -0.0 -0.0 -0.0
000060 00 80 00 80 00 80 00 80 00 00 00 80 00 80 00 80
       -0.0 -0.0 -0.0 -0.0 0.0 -0.0 -0.0 -0.0
000070 00 80 00 00 00 00 00 00 00 00 00 80 00 00 00 00
       -0.0 0.0 0.0 0.0 0.0 -0.0 0.0 0.0
000080 00 80 00 00 00 80 00 80 00 80 00 80 00 80 00 00
       -0.0 0.0 -0.0 -0.0 -0.0 -0.0 -0.0 0.0
000090 00 80 00 80 00 80 00 00 00 80 00 80 00 00 00 00
       -0.0 -0.0 -0.0 0.0 -0.0 -0.0 0.0 0.0
0000a0 00 80 00 80 00 80 00 80 00 80 00 00 00 00 00 80
       -0.0 -0.0 -0.0 -0.0 -0.0 0.0 0.0 -0.0
0000b0 00 80 00 00 00 80 00 80 00 80 00 00 00 80 00 80
       -0.0 0.0 -0.0 -0.0 -0.0 0.0 -0.0 -0.0
0000c0 00 00 00 80 00 80 00 80 00 80 00 00 00 80 00 80
       0.0 -0.0 -0.0 -0.0 -0.0 0.0 -0.0 -0.0
0000d0 00 80 00 80 00 80 00 80 00 00 00 80 00 80 00 80
       -0.0 -0.0 -0.0 -0.0 0.0 -0.0 -0.0 -0.0
0000e0 00 00 00 80 00 80 00 80 00 00 00 80 00 80 00 80
       0.0 -0.0 -0.0 -0.0 0.0 -0.0 -0.0 -0.0
0000f0 00 00 00 80 00 80 00 80 00 80 00 80 00 80 00 80
       0.0 -0.0 -0.0 -0.0 -0.0 -0.0 -0.0 -0.0
000100 00 00 00 80 00 80 00 00 00 80 00 80 00 00 00 80
       0.0 -0.0 -0.0 0.0 -0.0 -0.0 0.0 -0.0
000110 00 80 00 80 00 80 00 00 00 80 00 80 00 80 00 00
       -0.0 -0.0 -0.0 0.0 -0.0 -0.0 -0.0 0.0
000120 00 00 00 80 00 80 00 80 00 80 00 80 00 00 00 00
       0.0 -0.0 -0.0 -0.0 -0.0 -0.0 0.0 0.0
000130 00 80 00 80 00 80 00 80 00 80 00 80 00 80 00 80
       -0.0 -0.0 -0.0 -0.0 -0.0 -0.0 -0.0 -0.0
000140 00 80 00 80 00 00 00 00 00 80 00 80 00 80 00 80
       -0.0 -0.0 0.0 0.0 -0.0 -0.0 -0.0 -0.0
000150 00 80 00 80 00 80 00 00 00 80 00 80 00 80 00 80
       -0.0 -0.0 -0.0 0.0 -0.0 -0.0 -0.0 -0.0
000160 00 00 00 80 00 80 00 80 00 80 00 00 00 80 00 80
       0.0 -0.0 -0.0 -0.0 -0.0 0.0 -0.0 -0.0
000170 00 80 00 80 00 00 00 80 00 80 00 80 00 80 00 80
       -0.0 -0.0 0.0 -0.0 -0.0 -0.0 -0.0 -0.0
000180 00 00 00 80 00 00 00 80 00 80 00 80 00 00 00 80
       0.0 -0.0 0.0 -0.0 -0.0 -0.0 0.0 -0.0
000190 00 80 00 00 00 00 00 80 00 80 00 80 00 80 00 80
       -0.0 0.0 0.0 -0.0 -0.0 -0.0 -0.0 -0.0
0001a0 00 00 00 80 00 80 00 80 00 00 00 80 00 00 00 00
       0.0 -0.0 -0.0 -0.0 0.0 -0.0 0.0 0.0
0001b0 00 00 00 00 00 80 00 80 00 00 00 00 00 80 00 80
       0.0 0.0 -0.0 -0.0 0.0 0.0 -0.0 -0.0
0001c0 00 80 00 80 00 80 00 80 00 00 00 80 00 80 00 00
       -0.0 -0.0 -0.0 -0.0 0.0 -0.0 -0.0 0.0
0001d0 00 80 00 80 00 00 00 00 00 80 00 80 00 80 00 80
       -0.0 -0.0 0.0 0.0 -0.0 -0.0 -0.0 -0.0
0001e0 00 80 00 80 00 80 00 80 00 00 00 80 00 00 00 80
       -0.0 -0.0 -0.0 -0.0 0.0 -0.0 0.0 -0.0
0001f0 00 80 00 80 00 80 00 80 00 80 00 80 00 80 00 80
       -0.0 -0.0 -0.0 -0.0 -0.0 -0.0 -0.0 -0.0

model/dense_1/MatMul f2 [64, 256]
000000 00 80 d9 90 46 18 07 90 bf 91 98 92 76 92 00 00
       -0.0 -0.0005918 0.002087 -0.0004916 -0.0007014 -0.000805 -0.0007887 0.0
000010 f1 93 00 00 56 1a ea 8f c2 1a b9 8c c0 8e 1f 1c
       -0.0009694 0.0 0.003094 -0.000483 0.0033 -0.0002882 -0.000412 0.004025
000020 00 80 1c 92 00 00 00 80 74 90 00 80 18 92 11 90
       -0.0 -0.000746 0.0 -0.0 -0.0005436 -0.0 -0.000744 -0.0004964
000030 00 80 00 80 00 80 e6 19 00 80 00 80 25 1a 69 1b
       -0.0 -0.0 -0.0 0.00288 -0.0 -0.0 0.003 0.003618
000040 43 80 00 80 71 92 85 94 51 18 40 8f ae 8c 0a 91
       -4e-06 -0.0 -0.0007863 -0.001103 0.002108 -0.0004425 -0.0002856 -0.000615
000050 00 00 00 80 49 1b 00 80 5f 19 46 1a 00 80 9c 18
       0.0 -0.0 0.003557 -0.0 0.002623 0.003063 -0.0 0.00225
000060 c2 92 00 80 00 80 df 8e 41 1c d2 88 00 00 00 80
       -0.000825 -0.0 -0.0 -0.0004194 0.004154 -0.0001471 0.0 -0.0
000070 d9 8c a7 94 ad 90 48 91 41 92 00 80 f2 1a e1 8e
       -0.0002959 -0.001136 -0.000571 -0.0006447 -0.0007634 -0.0 0.003391 -0.0004199
000080 00 80 00 80 05 1b e6 19 00 80 00 80 c3 19 00 00
       -0.0 -0.0 0.003428 0.00288 -0.0 -0.0 0.002813 0.0
000090 f7 8f 4d 91 00 80 79 8e ee 19 00 00 ee 19 00 80
       -0.0004861 -0.000647 -0.0 -0.000395 0.002895 0.0 0.002895 -0.0
0000a0 54 8f d9 19 00 80 00 00 00 80 37 93 08 90 00 80
       -0.0004473 0.002855 -0.0 0.0 -0.0 -0.0008807 -0.000492 -0.0
0000b0 00 00 00 80 00 00 84 18 00 00 61 19 ab 1a 00 80
       0.0 -0.0 0.0 0.002205 0.0 0.002626 0.003256 -0.0
0000c0 c3 82 f3 90 8c 19 00 00 00 80 0a 19 2e 8e 00 80
       -4.214e-05 -0.000604 0.002708 0.0 -0.0 0.00246 -0.0003772 -0.0
0000d0 29 8c 91 19 2b 18 05 91 00 80 2d 81 f0 8f 00 80
       -0.000254 0.002718 0.002035 -0.0006127 -0.0 -1.794e-05 -0.0004845 -0.0
0000e0 00 80 00 80 00 00 eb 1a 00 00 f3 1a 00 80 03 8d
       -0.0 -0.0 0.0 0.003378 0.0 0.003393 -0.0 -0.000306
0000f0 00 80 99 19 00 80 00 00 00 00 ff 90 48 1b 00 00
       -0.0 0.002733 -0.0 0.0 0.0 -0.00061 0.003555 0.0
000100 00 00 30 1b da 94 85 91 d1 91 c4 18 b4 91 8f 8e
       0.0 0.00351 -0.001184 -0.000674 -0.00071 0.002327 -0.000696 -0.0004003
000110 00 80 00 80 00 00 b8 90 fd 00 2a 91 dc 8d 00 80
       -0.0 -0.0 0.0 -0.000576 1.51e-05 -0.0006304 -0.0003576 -0.0
000120 c5 18 47 19 00 80 00 80 00 80 00 80 00 80 00 80
       0.002329 0.002577 -0.0 -0.0 -0.0 -0.0 -0.0 -0.0
000130 ab 19 00 00 00 80 7b 1a 95 1a 00 80 00 80 2b 1a
       0.002768 0.0 -0.0 0.003164 0.003214 -0.0 -0.0 0.003012
000140 70 92 00 00 c5 8c af 90 23 91 00 80 e9 90 93 8f
       -0.000786 0.0 -0.000291 -0.0005717 -0.000627 -0.0 -0.0005994 -0.0004623
000150 e5 19 a4 19 00 00 3c 1b 31 19 00 80 61 93 f5 8b
       0.002878 0.002754 0.0 0.003532 0.002535 -0.0 -0.0009007 -0.0002428
000160 00 00 31 1b 16 1c 00 00 4a 1a 00 80 04 1c f8 1a
       0.0 0.003511 0.00399 0.0 0.00307 -0.0 0.00392 0.003403
000170 00 80 b1 93 00 00 4c 91 00 00 b6 1a 7c 91 c0 19
       -0.0 -0.000939 0.0 -0.0006466 0.0 0.003277 -0.0006695 0.002808
000180 f8 1b 00 00 de 94 00 00 eb 8e 01 19 67 93 dd 19
       0.003891 0.0 -0.001188 0.0 -0.0004222 0.002443 -0.0009036 0.002863
000190 e3 91 b2 19 d7 8c 7f 8e a8 8c 00 00 00 00 00 80
       -0.0007186 0.00278 -0.0002954 -0.0003965 -0.0002842 0.0 0.0 -0.0
0001a0 75 94 dd 89 15 19 f8 91 00 80 00 80 2b 91 db 91
       -0.001088 -0.0001789 0.002481 -0.0007286 -0.0 -0.0 -0.000631 -0.000715
0001b0 4a 18 fc 92 30 1a 00 00 00 80 cc 91 00 80 00 80
       0.002094 -0.0008526 0.003021 0.0 -0.0 -0.0007076 -0.0 -0.0
0001c0 c6 92 e0 94 6f 19 00 80 00 80 44 92 b4 19 60 93
       -0.000827 -0.00119 0.002653 -0.0 -0.0 -0.000765 0.002785 -0.0009003
0001d0 29 94 4f 93 3e 93 8f 8c 00 80 95 19 66 1b 7b 1a
       -0.001016 -0.000892 -0.000884 -0.0002782 -0.0 0.002726 0.003613 0.003164
0001e0 00 80 1d 1c aa 8f 00 00 f3 91 00 80 54 93 a4 92
       -0.0 0.004017 -0.0004678 0.0 -0.000726 -0.0 -0.0008945 -0.0008106
0001f0 00 80 6d 1a 1c 90 69 95 00 80 07 1b d4 8e 00 80
       -0.0 0.003138 -0.0005016 -0.001321 -0.0 0.003431 -0.0004168 -0.0

model/dense_2/MatMul f2 [32, 64]
000000 41 1e 07 9a e0 1e 97 1e dd 1d f9 1e 51 9a d1 1f
       0.006107 -0.002943 0.006714 0.006435 0.005726 0.00681 -0.003084 0.007633
000010 83 9b 3c 1f 36 1e 8a 9a 61 9a c3 1e 4e 1f 39 1f
       -0.003668 0.007065 0.006065 -0.003193 -0.003115 0.006603 0.007133 0.007053
000020 5b 1e c3 99 e4 9a 91 1e d2 99 01 1f 39 1e cd 1d
       0.006207 -0.002813 -0.003365 0.006413 -0.002842 0.00684 0.006077 0.005665
000030 42 9a 71 1f 7a 98 41 9b b5 9a 82 1d 85 1e b2 9b
       -0.003056 0.007267 -0.002186 -0.003542 -0.003275 0.00538 0.006367 -0.003757
000040 00 80 ed 99 53 1f 1e 99 21 99 45 98 1e 1f e7 1d
       -0.0 -0.002893 0.007153 -0.002499 -0.002504 -0.002085 0.00695 0.005764
000050 ee 99 c1 99 63 1e ba 9b 4d 9a cc 99 2a 1e 66 9a
       -0.002895 -0.00281 0.006237 -0.003773 -0.003077 -0.00283 0.00602 -0.003124
000060 7a 1e f6 1e 20 1e d6 1f 5d 9a 2f 1e 92 80 00 80
       0.006325 0.006798 0.00598 0.007652 -0.003107 0.00604 -8.7e-06 -0.0
000070 52 9a ba 1e 17 9b 4c 1f ac 99 4f 1e f5 1e 0d 9a
       -0.003086 0.00657 -0.003462 0.007126 -0.00277 0.00616 0.006794 -0.002954
000080 d8 9b 19 1e f8 9b ce 9a 67 9a 05 9c 44 1e 90 9c
       -0.00383 0.005955 -0.003891 -0.003323 -0.003126 -0.003925 0.00612 -0.004456
000090 a0 1f 98 9b 9d 9b 2d 1f 27 1e be 9b 56 9c ed 9b
       0.007446 -0.003708 -0.003717 0.007008 0.00601 -0.00378 -0.004234 -0.00387
0000a0 17 9b 3a 1e 93 1e 0e 9b 40 1e 4a 9c c6 9a 11 9a
       -0.003462 0.00608 0.00642 -0.003445 0.006104 -0.00419 -0.003307 -0.002962
0000b0 06 1e 60 9c 82 1d 79 1f 72 1e 87 9a 2f 9b aa 1f
       0.005882 -0.004272 0.00538 0.007298 0.006294 -0.003187 -0.003508 0.007484
0000c0 00 80 5a 1e 82 9b c3 1e eb 1d 6b 1d 01 9b 32 9b
       -0.0 0.006203 -0.003666 0.006603 0.00578 0.00529 -0.00342 -0.003513
0000d0 12 1e 02 1e 4f 9b 6c 1f 3f 1f 15 1e 48 9a 89 1e
       0.005928 0.005867 -0.003569 0.007248 0.007076 0.00594 -0.003067 0.006382
0000e0 14 9b d7 9b a1 9a 2a 9c 0c 20 9c 9a 37 01 00 80
       -0.003456 -0.003828 -0.003237 -0.004066 0.007904 -0.003227 1.854e-05 -0.0
0000f0 e2 1d 80 9b 4e 1f ed 9b 29 1e 85 9b 67 9b 3d 1e
       0.005745 -0.003662 0.007133 -0.00387 0.006016 -0.003672 -0.003614 0.006092
000100 26 9b 32 1e 69 9b 2a 9b c3 9a fd 9b 16 1e 2b 9c
       -0.00349 0.00605 -0.003618 -0.003498 -0.003302 -0.0039 0.005943 -0.00407
000110 45 1f 07 9c 4a 9b 63 1f cb 1d 47 9b 3e 9c 76 9b
       0.0071 -0.003933 -0.00356 0.007214 0.005657 -0.003553 -0.004143 -0.003643
000120 e7 9a 7e 1e 43 1e d3 9a fd 1d 33 9c 17 9b af 9a
       -0.00337 0.00634 0.006115 -0.003332 0.005848 -0.0041 -0.003462 -0.003263
000130 cb 1d 7b 9c 5b 1e f9 1e ee 1e 52 9a 8b 9b b6 1f
       0.005657 -0.004375 0.006207 0.00681 0.006767 -0.003086 -0.003683 0.00753
000140 00 80 eb 1d 60 9b 77 1e 10 1e 70 1d d7 9a 58 9b
       -0.0 0.00578 -0.003601 0.006313 0.00592 0.00531 -0.00334 -0.003586
000150 cb 1d 7b 1d da 9a 3c 1f bc 1e 17 1e ba 9a b0 1e
       0.005657 0.005352 -0.003345 0.007065 0.006577 0.005947 -0.003284 0.00653
000160 5f 9b 1c 9c f3 9a 1e 9c 47 1f bc 9a ef 00 00 00
       -0.0036 -0.004013 -0.003393 -0.00402 0.007107 -0.003288 1.425e-05 0.0
000170 78 1e 0c 9c de 1e 56 9b e2 1d 77 9a b2 9b d9 1d
       0.006317 -0.003952 0.006706 -0.003582 0.005745 -0.003157 -0.003757 0.00571
000180 ac 1c ba 99 c1 1c 98 1c 3b 1c ae 1d 02 9a c5 1d
       0.004562 -0.002796 0.004642 0.004486 0.00413 0.005547 -0.002934 0.005634
000190 30 9b 56 1d ab 1c 15 9a ec 99 0f 1d d7 1d 0c 1d
       -0.00351 0.00521 0.00456 -0.00297 -0.002892 0.00494 0.005703 0.00493
0001a0 e4 1c 7c 99 26 9a df 1c 6f 99 94 1d 80 1c 8a 1c
       0.004776 -0.002678 -0.003002 0.004757 -0.002653 0.005447 0.004395 0.004433
0001b0 72 99 9c 1d 00 99 82 9a f1 99 11 1c 39 1d 32 9b
       -0.002659 0.005478 -0.002441 -0.003178 -0.002901 0.00397 0.0051 -0.003513
0001c0 00 00 3a 99 4d 1d 96 99 05 99 7b 98 14 1d a3 1c
       0.0 -0.002552 0.005177 -0.002728 -0.00245 -0.002188 0.00496 0.004528
0001d0 b4 99 8a 99 6d 1d 12 9b 75 99 65 99 8c 1c c6 99
       -0.002785 -0.002705 0.0053 -0.003452 -0.002665 -0.002634 0.00444 -0.00282
0001e0 c2 1c ed 1c c7 1c 83 1d 90 9a b6 1c 8e 80 00 80
       0.004646 0.00481 0.004665 0.005383 -0.003204 0.0046 -8.46e-06 -0.0
0001f0 e0 99 e7 1c d8 99 63 1d 43 99 24 1d b4 1d b2 98
       -0.002869 0.004787 -0.002853 0.00526 -0.00257 0.00502 0.00557 -0.002293

model/dense_3/MatMul f2 [1, 32]
000000 89 38 a1 ba 3a ba 02 36 09 38 06 b1 13 38 d9 38
       0.567 -0.8286 -0.7783 0.3755 0.5044 -0.157 0.5093 0.606
000010 bf 38 ac b4 02 bb e6 37 3b b6 a2 38 3b 38 cf ba
       0.5933 -0.292 -0.876 0.4937 -0.3894 0.579 0.529 -0.851
000020 75 b8 27 b9 b1 37 c2 b4 75 39 d0 38 60 b3 ad 36
       -0.557 -0.644 0.4807 -0.2974 0.682 0.6016 -0.2305 0.4172
000030 9a 38 3a 26 8a b9 25 b9 7e 36 90 b3 4c b7 42 38
       0.575 0.02432 -0.6924 -0.643 0.4058 -0.2363 -0.456 0.532

model/separable_conv2d/separable_conv2d/depthwise1 f2 [1, 3, 3, 3]
000000 31 36 2d 30 6b ad cc b2 ad b4 f6 b1 68 b2 b5 30
       0.387 0.1305 -0.08466 -0.2124 -0.2922 -0.1863 -0.2002 0.1471
000010 ca 34 e4 ae 73 36 93 a6 0b 2e 3b 35 a8 36 36 b4
       0.2993 -0.10767 0.403 -0.02568 0.0944 0.327 0.416 -0.2632
000020 d6 31 41 b0 b1 ae e1 35 65 b2 9e ae 6c 35 d4 b4
       0.1824 -0.1329 -0.10455 0.3674 -0.1998 -0.1034 0.3389 -0.3018
000030 7d af f1 b5 2b 33
       -0.117 -0.3713 0.224

model/separable_conv2d/separable_conv2d f2 [16, 1, 1, 3]
000000 12 c4 cf 3c 52 c2 43 49 2b 46 86 3e d0 c0 77 40
       -4.07 1.202 -3.16 10.52 6.168 1.631 -2.406 2.232
000010 d3 c2 8b 3e 32 44 e3 3e 9c 42 8f be 36 3a 32 c0
       -3.412 1.636 4.195 1.722 3.305 -1.64 0.7764 -2.098
000020 79 40 4b 41 f5 c7 1c c6 da 37 29 44 06 45 01 c6
       2.236 2.646 -7.957 -6.11 0.4907 4.16 5.023 -6.004
000030 9d 3c ef 43 9e bf b4 3b 30 41 08 cb 53 42 ac bd
       1.153 3.967 -1.904 0.963 2.594 -14.06 3.162 -1.418
000040 52 44 d2 c3 cc 3c dd c4 86 c4 4e c4 c1 45 2c 3b
       4.32 -3.91 1.199 -4.863 -4.523 -4.305 5.754 0.8965
000050 bb c1 b8 c2 38 bf 1c c4 8f 44 10 44 22 45 f0 c4
       -2.865 -3.36 -1.805 -4.11 4.56 4.062 5.133 -4.938

model/separable_conv2d_1/separable_conv2d/depthwise f2 [16]
000000 00 00 00 00 00 00 00 00 00 00 00 00 00 00 00 00
       0.0 0.0 0.0 0.0 0.0 0.0 0.0 0.0
000010 00 00 00 00 00 00 00 00 00 00 00 00 00 00 00 00
       0.0 0.0 0.0 0.0 0.0 0.0 0.0 0.0

model/separable_conv2d_1/separable_conv2d/depthwise1 f2 [1, 3, 3, 16]
000000 5c 2b 9f ad 3b 31 84 b1 3d 2f 24 2d 2e 30 24 32
       0.0575 -0.0878 0.1635 -0.1724 0.1131 0.0803 0.1306 0.1919
000010 4d 31 57 30 34 31 ee b1 11 30 28 ad e0 2a cf b2
       0.1656 0.1356 0.1626 -0.1853 0.1271 -0.08057 0.0537 -0.2128
000020 3d 27 3b a5 74 b1 8f 2e 4d 2c ff 9d 17 30 3e 24
       0.02827 -0.02043 -0.1704 0.1025 0.0672 -0.005856 0.1278 0.01657
000030 6b b1 5b ae 4a b1 47 af b3 ab 01 2e 9a 30 75 28
       -0.1693 -0.0993 -0.1653 -0.1137 -0.06015 0.0938 0.1438 0.03482
000040 b7 2f 27 2e 84 31 da ab 1c 2f 61 30 2d 92 26 a5
       0.12054 0.0961 0.1724 -0.06134 0.1111 0.1368 -0.000754 -0.02011
000050 e8 a7 9d 31 0e a8 5d 31 16 2a f4 2f 36 aa 09 2d
       -0.03088 0.1754 -0.03168 0.1676 0.04755 0.12427 -0.04852 0.0787
000060 47 ae 9c 2d 62 32 dc a8 32 ad 71 2a b8 b1 91 a7
       -0.0981 0.08765 0.1995 -0.03796 -0.0812 0.05032 -0.1787 -0.02956
000070 5b a4 0e a6 c4 2f 80 b2 70 2f 24 ae a5 2b 7d 2e
       -0.01701 -0.02365 0.12134 -0.2031 0.1162 -0.09595 0.05972 0.1014
000080 30 19 99 2e d9 2e d4 29 a8 a8 f1 1c 06 2a fc b0
       0.002533 0.1031 0.107 0.04553 -0.03638 0.004826 0.04706 -0.1558
000090 09 ad 4d b1 d7 30 e3 30 21 30 29 ac 24 a8 41 2c
       -0.0787 -0.1656 0.1512 0.1527 0.129 -0.065 -0.03235 0.06647
0000a0 e7 b0 80 2d 6f b0 cb b1 66 2c 7c b0 3e a8 80 2d
       -0.1532 0.08594 -0.1385 -0.181 0.0687 -0.1401 -0.03314 0.08594
0000b0 cc b1 c0 2a c9 af 9e 9d 44 b1 65 b1 83 31 1b 32
       -0.1812 0.05273 -0.12164 -0.005486 -0.1646 -0.1686 0.1722 0.1908
0000c0 7e 26 59 a7 20 b1 d9 30 86 b0 61 2e 73 b0 28 b1
       0.02536 -0.0287 -0.1602 0.1515 -0.1414 0.0997 -0.139 -0.1611
0000d0 e6 ab 49 af e0 a8 cc a8 e0 ae b2 a9 6a ad e3 28
       -0.0617 -0.11383 -0.0381 -0.03748 -0.1074 -0.0445 -0.0846 0.03818
0000e0 ff b1 83 30 35 ae d6 a8 db a4 6f 2e f1 a1 3b a3
       -0.1874 0.141 -0.097 -0.03778 -0.01897 0.1005 -0.011604 -0.01412
0000f0 78 2f 04 b1 f9 2c 90 a9 c8 2e 6f ac 44 ae 93 9c
       0.1167 -0.1567 0.0777 -0.04346 0.10596 -0.0693 -0.0979 -0.004467
000100 9f 1f 2c af e2 28 af 2d 43 b1 a8 28 eb ae b9 aa
       0.007442 -0.11206 0.03815 0.0888 -0.1644 0.03638 -0.1081 -0.05252
000110 67 30 5c 30 3b 31 fd 31 26 1c 05 aa 99 30 38 af
       0.1376 0.1362 0.1635 0.1871 0.00405 -0.04703 0.1437 -0.1128

model/separable_conv2d_1/separable_conv2d f2 [32, 1, 1, 16]
000000 ba 41 13 c0 b1 41 08 bc 60 44 f0 bd 8e bd 37 c2
       2.863 -2.037 2.846 -1.008 4.375 -1.484 -1.389 -3.107
000010 00 b2 ac bf e8 c1 22 28 e8 bd 91 41 6a 44 34 c3
       -0.1875 -1.918 -2.953 0.0323 -1.477 2.783 4.414 -3.602
000020 9c 3d fd b6 29 37 af 36 72 af db ba 17 b6 b0 bd
       1.402 -0.4368 0.4475 0.4177 -0.11633 -0.857 -0.3806 -1.422
000030 80 33 1c 33 2b 3e 51 3f 54 3a 15 ba 0c 3d 6f 3c
       0.2344 0.2222 1.542 1.829 0.791 -0.7603 1.262 1.108
000040 ed 38 4d c0 65 40 95 be 57 39 c0 3f 23 bf a9 bc
       0.6157 -2.15 2.197 -1.6455 0.6675 1.9375 -1.784 -1.165
000050 22 be 9e b0 95 3c bf bb 73 c0 74 b0 95 b4 9f 40
       -1.533 -0.1443 1.1455 -0.9683 -2.225 -0.1392 -0.2864 2.31
000060 16 bb a5 b1 bf 36 19 bc 74 b9 37 bc 1f ba a2 be
       -0.8857 -0.1764 0.4216 -1.024 -0.6816 -1.054 -0.765 -1.658
000070 b7 3a 28 39 fc 3e 8d 3a 9a bc 10 bf 35 3b a2 b8
       0.8394 0.6445 1.746 0.819 -1.15 -1.766 0.901 -0.579
000080 6c bf 5c 34 15 b8 42 44 6d c5 98 c2 bd 44 4d 3e
       -1.855 0.2725 -0.5103 4.258 -5.426 -3.297 4.74 1.575
000090 17 c5 ab bf 35 44 16 37 91 41 da 44 ea c0 ab c3
       -5.09 -1.917 4.207 0.4429 2.783 4.85 -2.457 -3.834
0000a0 ec b1 ec 40 aa c0 d5 c0 44 ba ac b8 8f c4 c9 ba
       -0.185 2.46 -2.332 -2.416 -0.783 -0.584 -4.56 -0.848
0000b0 e8 42 33 42 dd c0 84 3d d1 c0 80 bf fc 43 1c 42
       3.453 3.1 -2.432 1.379 -2.408 -1.875 3.992 3.055
0000c0 ef 3b 0e 41 9c c0 2a b0 c8 c3 3f c1 b0 42 68 3d
       0.9917 2.527 -2.305 -0.1301 -3.89 -2.623 3.344 1.352
0000d0 dd c3 01 c2 db b4 be c3 82 be 67 c2 ff c3 d7 38
       -3.932 -3.002 -0.3035 -3.871 -1.627 -3.201 -3.998 0.605
0000e0 60 36 eb 3c 2a 41 bd 41 8d c0 19 c0 b8 3f 9d 3a
       0.3984 1.2295 2.582 2.87 -2.275 -2.049 1.93 0.8267
0000f0 ce 42 d0 36 31 b4 4c c1 16 c0 0b ba 12 3c 6c b4
       3.402 0.4258 -0.262 -2.648 -2.043 -0.7554 1.018 -0.2764
000100 47 c5 f4 32 1b c2 2a c5 ea 40 68 3d 46 bd 2d 41
       -5.277 0.2173 -3.053 -5.164 2.457 1.352 -1.318 2.588
000110 a9 34 94 41 4e c2 2d c0 4c c0 3a c1 30 45 5e c4
       0.2913 2.79 -3.152 -2.088 -2.148 -2.613 5.188 -4.367
000120 a5 43 0a c3 c0 c0 dc b9 82 ba 5c 41 fe b7 56 3f
       3.822 -3.52 -2.375 -0.7324 -0.8135 2.68 -0.4995 1.834
000130 5d c4 19 45 c0 b7 33 33 c7 c0 de 41 a4 3d e2 30
       -4.363 5.098 -0.4844 0.225 -2.389 2.934 1.41 0.1526
000140 a5 be 22 bd d6 bb d3 3d 61 be 1d bd 8f 3e 3a 3c
       -1.661 -1.283 -0.9795 1.456 -1.595 -1.278 1.64 1.057
000150 36 3e 8e 3b 3b 40 0d 41 59 bf a9 bf cb be f1 39
       1.553 0.9443 2.115 2.525 -1.837 -1.915 -1.698 0.7427
000160 29 c2 22 c3 8b bf 4f c2 ea 3e ed bd ad c3 7e 42
       -3.08 -3.566 -1.886 -3.154 1.729 -1.481 -3.838 3.246
000170 81 3d f1 c3 71 40 0b 30 ea 41 4c 43 2a 41 9c 41
       1.376 -3.97 2.22 0.1263 2.957 3.648 2.582 2.805
000180 3b c4 8a 3c 89 b4 45 43 44 c4 8b 38 7d 43 6f bc
       -4.23 1.135 -0.2834 3.635 -4.266 0.568 3.744 -1.108
000190 10 b8 08 40 c9 30 d1 b9 31 bd 8e c4 5d 35 8d be
       -0.508 2.016 0.1495 -0.727 -1.298 -4.555 0.3352 -1.638
0001a0 16 40 ce be b1 46 38 c3 ec bf 30 44 3e 46 1d 41
       2.043 -1.701 6.69 -3.61 -1.98 4.188 6.242 2.557
0001b0 d9 41 10 36 6d 3e 27 bc 71 46 a8 42 52 44 a4 c5
       2.924 0.379 1.606 -1.038 6.44 3.328 4.32 -5.64
0001c0 b4 46 0c 3c cc 42 dc 44 cc bc a4 44 07 40 4a 3d
       6.703 1.012 3.398 4.86 -1.199 4.64 2.014 1.322
0001d0 90 c5 c1 45 fa c3 94 41 6f c3 e9 c4 f4 3b 8e c2
       -5.562 5.754 -3.988 2.79 -3.717 -4.91 0.994 -3.277
0001e0 fd ad 92 3d ed be 73 38 43 bf 2c 3c 95 3c 66 37
       -0.09357 1.393 -1.731 0.556 -1.815 1.043 1.1455 0.4624
0001f0 a3 3f ee 3c 03 b4 17 bb 72 bc 94 40 02 bd 11 3e
       1.909 1.232 -0.2507 -0.886 -1.111 2.29 -1.252 1.517

model/separable_conv2d_2/separable_conv2d/depthwise f2 [32]
000000 00 00 00 00 00 00 00 00 00 00 00 00 00 00 00 00
       0.0 0.0 0.0 0.0 0.0 0.0 0.0 0.0
000010 00 00 00 00 00 00 00 00 00 00 00 00 00 00 00 00
       0.0 0.0 0.0 0.0 0.0 0.0 0.0 0.0
000020 00 00 00 00 00 00 00 00 00 00 00 00 00 00 00 00
       0.0 0.0 0.0 0.0 0.0 0.0 0.0 0.0
000030 00 00 00 00 00 00 00 00 00 00 00 00 00 00 00 00
       0.0 0.0 0.0 0.0 0.0 0.0 0.0 0.0

model/separable_conv2d_2/separable_conv2d/depthwise1 f2 [1, 3, 3, 32]
000000 95 2d 44 b0 30 29 51 af 52 2c 92 30 55 2e 07 2c
       0.0872 -0.1333 0.04053 -0.1143 0.0675 0.1428 0.09894 0.0629
000010 38 2e a7 1c 4f 2f ea 16 d8 2a d8 1c a2 a8 22 2a
       0.09717 0.004543 0.1142 0.001688 0.05347 0.00473 -0.0362 0.0479
000020 f1 21 7c 30 71 2c 17 2f 62 ab 0a b0 fb 28 94 ad
       0.011604 0.1401 0.0694 0.1108 -0.05768 -0.1262 0.0389 -0.08716
000030 a3 2f d0 a9 05 2e 01 b0 42 b1 53 24 8d 1e 66 30
       0.1193 -0.0454 0.09406 -0.1251 -0.1643 0.01689 0.006397 0.1375
000040 b3 a1 59 ad 3d 1d bb 25 10 a7 fc ab ad a8 19 30
       -0.01113 -0.08356 0.005116 0.02238 -0.02759 -0.06238 -0.03653 0.128
000050 71 9c 24 2d 3f 30 25 19 92 ad aa aa 7b 2c e7 2c
       -0.004337 0.0803 0.1327 0.002512 -0.08704 -0.05206 0.07 0.0766
000060 77 2c f1 a5 07 29 6b ae de a1 04 31 dd 2c 4b ab
       0.06976 -0.02321 0.03928 -0.1003 -0.01146 0.1567 0.076 -0.05698
000070 17 ac d6 30 09 ac ff 2e b8 21 a7 ac 61 ad e5 28
       -0.0639 0.1511 -0.06305 0.1093 0.01117 -0.0727 -0.08405 0.03824
000080 7a b0 96 ae 08 2b 35 ac 69 ac b3 a9 df 2e 19 2f
       -0.1399 -0.1029 0.05493 -0.06573 -0.0689 -0.04453 0.10736 0.1109
000090 67 ad f0 97 e7 2c bc 29 79 28 db 24 63 2b a4 9c
       -0.0844 -0.001938 0.0766 0.0448 0.03494 0.01897 0.0577 -0.00453
0000a0 7a ab c2 ac ea a3 81 a9 7f 1c cb af 39 a9 92 b1
       -0.0584 -0.07434 -0.01546 -0.043 0.00439 -0.12177 -0.0408 -0.1741
0000b0 44 a8 38 2d bf 29 4a ac b4 ad e2 9f 70 2e 93 af
       -0.03333 0.08154 0.0449 -0.067 -0.0891 -0.007698 0.1006 -0.11835
0000c0 d1 2c 79 a4 4d ab 2c b0 31 26 f8 a1 ac 29 92 ad
       0.07526 -0.01747 -0.05704 -0.1304 0.02419 -0.01166 0.0443 -0.08704
0000d0 4e 2e 7e 2f a4 22 35 2e b8 2e 42 31 e9 a9 26 aa
       0.0985 0.11707 0.01297 0.097 0.105 0.1643 -0.04617 -0.04803
0000e0 39 af 26 9c ca a9 fc 22 be 21 5f 21 15 26 09 26
       -0.11285 -0.00405 -0.04523 0.01364 0.011215 0.01049 0.02376 0.02357
0000f0 47 ae ef b0 83 af c9 2d 5e 30 89 2b 4e b0 25 2d
       -0.0981 -0.1542 -0.1174 0.0904 0.1365 0.05887 -0.1345 0.0804
000100 bc 2a 22 ae 2c a1 7c af 68 af 48 b0 3a 2e c1 a8
       0.0526 -0.0958 -0.0101 -0.11694 -0.1157 -0.1338 0.0973 -0.03714
000110 d0 a1 77 1e 50 ae d2 2c f0 ad 20 a5 72 2e 3a ad
       -0.01135 0.006313 -0.09863 0.0753 -0.0928 -0.02002 0.1007 -0.08167
000120 3f 28 55 b0 cc ae a8 ab 66 2a 30 2f f7 a6 38 b0
       0.03317 -0.1354 -0.1062 -0.0598 0.05 0.1123 -0.0272 -0.1318
000130 06 ab 41 a9 4c a6 a6 28 f6 a0 e6 29 e7 ac 7b 30
       -0.05487 -0.04105 -0.0246 0.03632 -0.00969 0.04608 -0.0766 0.14
000140 bc ab 47 ad 15 28 61 2a ce a8 31 a5 04 b0 4b 30
       -0.06042 -0.08246 0.0319 0.04984 -0.03754 -0.02028 -0.1255 0.1342
000150 66 26 49 23 ed 28 fb 9a 71 b1 f7 2e 6f 2d d8 a0
       0.025 0.01423 0.03848 -0.003408 -0.17 0.1088 0.0849 -0.00946
000160 ec ac 2e 1e 99 30 4f b0 ab 28 ba a5 cc a3 4e 2f
       -0.0769 0.006035 0.1437 -0.1346 0.03647 -0.02237 -0.01523 0.11414
000170 ec a1 9a 28 d0 29 9e 2c ac a9 2e 24 1e 2a cc ad
       -0.011566 0.03595 0.0454 0.07214 -0.0443 0.01633 0.0478 -0.0906
000180 af 2e ab 2a 5c b0 e2 a6 ae 28 c0 91 9e b1 d6 25
       0.10443 0.0521 -0.1362 -0.02689 0.03656 -0.000702 -0.1755 0.0228
000190 9a b0 d0 ae fa a3 0a af ec 2a 0e 2d e8 21 d3 ad
       -0.1438 -0.10645 -0.01558 -0.11 0.05408 0.079 0.011536 -0.091
0001a0 5c ad 56 2d ac b0 b1 aa 6e b0 4c 31 db a3 ab ad
       -0.08374 0.0834 -0.146 -0.05228 -0.1384 0.1655 -0.01534 -0.08856
0001b0 0c a6 09 20 28 af 45 aa 4a 30 ec a9 fc ac e1 a4
       -0.02362 0.00788 -0.1118 -0.04898 0.134 -0.04626 -0.0779 -0.01906
0001c0 7c a6 3e 29 66 2d 23 2f ee 2e a8 ac 23 ac 01 2d
       -0.02533 0.04095 0.08435 0.1115 0.1083 -0.07275 -0.06464 0.0782
0001d0 ef 11 25 a9 38 ac 30 ad e6 26 d8 af 38 2c d5 9f
       0.0007243 -0.0402 -0.0659 -0.08105 0.02695 -0.12256 0.0659 -0.00765
0001e0 c5 ad de 8f 61 ad b4 2b 84 2f 9b ac e9 2c 0e 31
       -0.09015 -0.0004802 -0.08405 0.06018 0.11743 -0.07196 0.0767 0.158
0001f0 88 aa a9 22 4f af bc ac 1a 2c eb a9 dc 30 7c af
       -0.05103 0.01301 -0.1142 -0.074 0.0641 -0.04623 0.1519 -0.11694

model/separable_conv2d_2/separable_conv2d f2 [64, 1, 1, 32]
000000 3e 3f 1c 37 fd 3c e1 3d 9d ba 53 b8 d0 bd 61 3e
       1.811 0.4443 1.247 1.47 -0.8267 -0.5405 -1.453 1.595
000010 7a 2f 63 b8 0a bb 4e 37 af 3b 27 3a 0c b5 e7 3c
       0.1168 -0.5483 -0.88 0.4565 0.9604 0.769 -0.3154 1.226
000020 5d 3d 98 3e 0f 40 b4 3f b3 bb 50 41 30 3e 15 3e
       1.341 1.648 2.03 1.926 -0.9624 2.656 1.547 1.5205
000030 26 b8 1b bc 88 39 9f 3f 1b 40 cb 3c 54 3c 35 be
       -0.5186 -1.026 0.6914 1.905 2.053 1.198 1.082 -1.552
000040 a0 3e 97 39 e5 3e 72 bd bd 3d cd 3d e6 35 69 bb
       1.656 0.6987 1.724 -1.361 1.435 1.45 0.3687 -0.9263
000050 98 3c c7 c0 b5 41 c2 3d 7c bf 84 b8 62 3c 62 39
       1.148 -2.389 2.854 1.439 -1.871 -0.5645 1.096 0.673
000060 02 3b 05 3c a0 ba e3 34 80 3f 62 34 f7 30 2a a0
       0.876 1.005 -0.828 0.3054 1.875 0.274 0.1552 -0.00813
000070 98 3a 47 38 db bf 07 41 ad c1 78 a6 2a 3f 51 3e
       0.824 0.5347 -1.964 2.514 -2.838 -0.02527 1.791 1.579
000080 f3 36 75 bf 62 41 19 3d 6c b9 88 3c 59 b2 ae bf
       0.4343 -1.864 2.691 1.274 -0.6777 1.133 -0.1984 -1.92
000090 fd b5 e5 3b 12 3d 89 39 ae bd 6b 36 f9 31 43 3c
       -0.3743 0.987 1.268 0.692 -1.42 0.4011 0.1866 1.065
0000a0 b6 bc ce bc 5f 36 3b 3a b0 be 2e 3d c4 3c c9 bf
       -1.178 -1.201 0.3982 0.779 -1.672 1.295 1.191 -1.946
0000b0 55 3e 3a 35 9e bb 95 c1 65 be c9 bf 07 bc e1 3e
       1.583 0.3267 -0.952 -2.791 -1.599 -1.946 -1.007 1.72
0000c0 d2 39 59 3a 99 37 2e bd 78 bb be 3d 44 b5 17 bd
       0.7275 0.7935 0.4749 -1.295 -0.9336 1.436 -0.329 -1.272
0000d0 99 be 3a 3e 5f a7 58 3c 56 b8 7d 3e 5f bd 75 c0
       -1.649 1.557 -0.0288 1.086 -0.542 1.622 -1.343 -2.229
0000e0 55 30 94 b9 30 bc ef be 70 3f 92 b1 72 3c 45 b0
       0.1354 -0.6973 -1.047 -1.733 1.859 -0.1741 1.111 -0.1334
0000f0 c8 3c 65 bd 35 3f 1c 3c f1 3d c2 3d 84 ba bf 36
       1.195 -1.349 1.802 1.027 1.485 1.439 -0.8145 0.4216
000100 19 b9 88 c1 49 ba d4 3d 91 3b 7a c0 d3 c0 48 b8
       -0.637 -2.766 -0.7856 1.457 0.946 -2.238 -2.412 -0.535
000110 71 35 11 b9 21 c1 73 be 18 2e 7e bf 74 40 aa c2
       0.34 -0.6333 -2.564 -1.612 0.0952 -1.873 2.227 -3.332
000120 51 bd d5 c0 1b 32 9d bc 59 3f 26 b1 c4 40 e9 bc
       -1.329 -2.416 0.1908 -1.153 1.837 -0.1609 2.383 -1.228
000130 9e 3f 29 bf 8f bf e8 b2 8f bf 48 be 54 3d 7e 40
       1.904 -1.79 -1.89 -0.2158 -1.89 -1.57 1.332 2.246
000140 23 bd 01 35 32 b7 79 34 71 35 44 3b 46 3e 6a b8
       -1.284 0.3127 -0.4497 0.2795 0.34 0.908 1.568 -0.552
000150 c1 c0 ff b5 09 bb 27 b6 c4 aa 5e 2f 1a 33 0c c0
       -2.377 -0.3748 -0.8794 -0.3845 -0.05286 0.1151 0.2219 -2.023
000160 7d b0 27 3b 28 bb 74 2c e6 bf d3 3d ae 3f ef 3a
       -0.1403 0.894 -0.8945 0.0696 -1.975 1.456 1.92 0.8667
000170 f6 3e be 32 13 3a 8f 40 53 c0 c5 3d 8e 36 ec b8
       1.74 0.2107 0.7593 2.28 -2.162 1.442 0.4097 -0.615
000180 2a c1 a2 bc 24 b8 bc 3c ef 3e 1f c1 55 40 10 33
       -2.582 -1.158 -0.5176 1.184 1.733 -2.56 2.166 0.2207
000190 24 be 9c 40 2f c0 1f 39 66 bf 47 bb 81 29 76 3b
       -1.535 2.305 -2.092 0.64 -1.85 -0.9097 0.043 0.9326
0001a0 ba 39 6a b1 03 c1 2f b8 13 bf 91 3d 3a 3d c7 36
       0.716 -0.1692 -2.506 -0.523 -1.769 1.392 1.307 0.4236
0001b0 c9 c0 5c 3d 9e ba d1 3d 17 37 b4 3d 78 b9 ae c0
       -2.393 1.34 -0.827 1.454 0.443 1.426 -0.6836 -2.34
0001c0 d4 c0 84 38 51 b8 40 b7 1c ac 28 b9 25 bc 8f be
       -2.414 0.5645 -0.5396 -0.4531 -0.0642 -0.6445 -1.036 -1.64
0001d0 a3 bc 65 b3 e4 40 ce 33 2f 3c ea 40 fb 32 76 40
       -1.159 -0.2311 2.445 0.2439 1.046 2.457 0.2181 2.23
0001e0 ab 39 41 bd 2e ba 2d b8 b9 ba 7f be 3c 37 86 c0
       0.7085 -1.313 -0.7725 -0.522 -0.8403 -1.624 0.4521 -2.262
0001f0 8e bb 62 3d 72 be 3d ad bd b7 93 c0 27 b8 3b b5
       -0.9443 1.346 -1.611 -0.08185 -0.4836 -2.287 -0.519 -0.327

model/separable_conv2d_3/separable_conv2d/depthwise f2 [64]
000000 00 00 00 00 00 00 00 00 00 00 00 00 00 00 00 00
       0.0 0.0 0.0 0.0 0.0 0.0 0.0 0.0
000010 00 00 00 00 00 00 00 00 00 00 00 00 00 00 00 00
       0.0 0.0 0.0 0.0 0.0 0.0 0.0 0.0
000020 00 00 00 00 00 00 00 00 00 00 00 00 00 00 00 00
       0.0 0.0 0.0 0.0 0.0 0.0 0.0 0.0
000030 00 00 00 00 00 00 00 00 00 00 00 00 00 00 00 00
       0.0 0.0 0.0 0.0 0.0 0.0 0.0 0.0
000040 00 00 00 00 00 00 00 00 00 00 00 00 00 00 00 00
       0.0 0.0 0.0 0.0 0.0 0.0 0.0 0.0
000050 00 00 00 00 00 00 00 00 00 00 00 00 00 00 00 00
       0.0 0.0 0.0 0.0 0.0 0.0 0.0 0.0
000060 00 00 00 00 00 00 00 00 00 00 00 00 00 00 00 00
       0.0 0.0 0.0 0.0 0.0 0.0 0.0 0.0
000070 00 00 00 00 00 00 00 00 00 00 00 00 00 00 00 00
       0.0 0.0 0.0 0.0 0.0 0.0 0.0 0.0

model/separable_conv2d_3/separable_conv2d/depthwise1 f2 [1, 3, 3, 64]
000000 1f 2d 4f 24 b0 25 1c a4 96 a9 d5 2a f9 1e 30 1f
       0.08 0.01683 0.02222 -0.01605 -0.04364 0.05338 0.00681 0.00702
000010 0f 28 c1 ad ed 2b b8 2f 37 2d b1 ae 75 ac fa 27
       0.0317 -0.0899 0.06192 0.1206 0.0815 -0.10455 -0.06964 0.03116
000020 bb 28 da 2c df 20 fd a5 ba ae 87 2d 60 2e 6b 16
       0.03696 0.0758 0.009514 -0.02339 -0.1051 0.08636 0.0996 0.001567
000030 0a ae 05 a4 bf ac ad af 2c a5 ff 2c ea ac 70 22
       -0.09436 -0.0157 -0.07416 -0.11993 -0.0202 0.07806 -0.0768 0.01257
000040 5f aa 04 ae fd 9c 97 ad 61 ae 7d 97 50 2e a9 ac
       -0.04977 -0.094 -0.00487 -0.08734 -0.0997 -0.001828 0.09863 -0.0728
000050 b9 2c a4 2f 84 2d af ac c6 a9 05 ac 19 2c 54 ad
       0.0738 0.1194 0.0862 -0.0732 -0.0451 -0.0628 0.064 -0.08325
000060 72 2d 10 29 44 ae 84 29 b2 2d ac 2e ec aa a2 2d
       0.0851 0.03955 -0.0979 0.0431 0.089 0.10425 -0.05408 0.088
000070 76 2c 7c ab 70 a6 73 a6 7a 28 2b 9a 70 2c 84 2f
       0.0697 -0.05847 -0.02515 -0.02519 0.03497 -0.003012 0.06934 0.11743
000080 21 22 10 22 90 25 b4 29 0b aa 98 ac 5c 30 94 1d
       0.01197 0.01184 0.02173 0.04456 -0.0472 -0.0718 0.1362 0.005447
000090 e2 24 27 ab de ad 1a 30 a0 a7 c1 a8 95 2a 5c 98
       0.01907 -0.05588 -0.0917 0.1282 -0.02979 -0.03714 0.05142 -0.002129
0000a0 bb 2d 76 a0 b0 ae 18 ac 6a a8 39 2e 35 31 e0 ad
       0.08954 -0.00871 -0.1045 -0.06396 -0.0345 0.0972 0.1627 -0.0918
0000b0 02 2c 44 28 97 29 26 29 43 ae db 26 bf 2c 29 2c
       0.0626 0.03333 0.04367 0.04022 -0.09784 0.02678 0.07416 0.065
0000c0 8b 2f 8a ac 9d 2e 5e a7 2e a7 be 20 58 2d 34 2d
       0.11786 -0.0709 0.10333 -0.02878 -0.02805 0.00926 0.0835 0.0813
0000d0 94 2c 3e 30 ff ab c1 2c 54 a7 9a ad 04 ae 81 2b
       0.07153 0.1326 -0.06247 0.0743 -0.02863 -0.0875 -0.094 0.05862
0000e0 51 29 e4 2b 57 1d 7a ab cf 2e 0c a8 37 20 a6 1f
       0.04153 0.06165 0.005215 -0.0584 0.1064 -0.03162 0.00823 0.00747
0000f0 6b ab e3 24 04 b0 62 a9 56 30 35 2c e1 aa d2 a8
       -0.05795 0.01909 -0.1255 -0.04205 0.1355 0.06573 -0.05374 -0.03766
000100 83 a8 ff 2a 07 2f 70 2d b7 ad 35 29 ef ac 61 28
       -0.03525 0.05466 0.1098 0.08496 -0.0893 0.04068 -0.0771 0.0342
000110 83 1c 00 a9 66 b0 cc aa dd a0 1b 2d ca a7 10 28
       0.004406 -0.03906 -0.1375 -0.0531 -0.0095 0.0798 -0.03043 0.03174
000120 61 a4 24 30 0a b0 18 18 9a 24 83 27 99 a3 ee a9
       -0.0171 0.1294 -0.1262 0.001999 0.01797 0.02934 -0.01484 -0.04633
000130 03 a8 c1 2c 4d 2c e5 2e 14 2b 9a a7 21 2f 4c aa
       -0.03134 0.0743 0.0672 0.1077 0.0553 -0.0297 0.1114 -0.0492
000140 6f 2e 72 ae 58 29 9e a8 bb 2a 81 a0 5d 28 af ae
       0.1005 -0.1007 0.04175 -0.03607 0.05258 -0.0088 0.0341 -0.10443
000150 d9 2b 38 27 9b ab c4 8d d6 27 9d 2a d2 1a 97 2a
       0.0613 0.0282 -0.05942 -0.000352 0.03061 0.05167 0.00333 0.05148
000160 45 21 e0 2f 7a a9 45 b0 83 2e 96 ae ac 26 90 2c
       0.01029 0.12305 -0.0428 -0.1334 0.10175 -0.1029 0.02606 0.0713
000170 2a ac 58 ab a0 9d be 2b fa 2c b3 a9 ed 2c 7b 25
       -0.06506 -0.05737 -0.005493 0.0605 0.07776 -0.04453 0.07697 0.02141
000180 45 a8 63 b0 0e 2d 6c ab 19 9c 95 20 41 a1 cf aa
       -0.03336 -0.1371 0.079 -0.05798 -0.004 0.00895 -0.01026 -0.0532
000190 a7 99 e5 2a 8d a6 5e a5 9a a9 ac a9 35 a8 47 ad
       -0.00276 0.05386 -0.02559 -0.02097 -0.04376 -0.0443 -0.03287 -0.08246
0001a0 07 af bd 2a 16 ad a3 25 f2 2a d7 1b 1e 2d 1a 2c
       -0.1098 0.05264 -0.07947 0.02202 0.05426 0.003828 0.07996 0.0641
0001b0 c4 a7 30 1f 42 aa b8 a0 63 2f 60 2d 14 ab 12 a5
       -0.03033 0.00702 -0.0489 -0.00922 0.1154 0.084 -0.0553 -0.0198
0001c0 8a ad 23 ac c0 ac 6f ae d7 a9 3a 2a f1 28 49 96
       -0.08655 -0.06464 -0.0742 -0.1005 -0.04562 0.04865 0.0386 -0.001534
0001d0 5a 2f 4a 99 f7 a2 91 a3 4d 29 4e 2d 47 28 25 aa
       0.11487 -0.002583 -0.0136 -0.01478 0.0414 0.0829 0.03342 -0.048
0001e0 b3 2c 8e 2c c1 aa 21 2b 36 26 39 2f 3c 2f 53 a9
       0.0734 0.07117 -0.05276 0.0557 0.02426 0.11285 0.11304 -0.0416
0001f0 70 aa cd ac 01 aa 49 a9 9c 2d 13 2d 62 a8 9f 2d
       -0.0503 -0.075 -0.0469 -0.0413 0.08765 0.0793 -0.03424 0.0878

model/separable_conv2d_3/separable_conv2d f2 [128, 1, 1, 64]
000000 44 b4 ca 32 bc bb b7 af 8a 39 39 b5 85 28 54 33
       -0.2666 0.2122 -0.967 -0.12054 0.6924 -0.3264 0.0353 0.229
000010 62 b6 ad 38 19 34 0e bc 5c 33 74 37 19 bc 3f bb
       -0.399 0.5845 0.256 -1.014 0.23 0.4658 -1.024 -0.906
000020 3d ba fc b4 67 ad 2c bb 3c b8 37 38 2c ba 65 b9
       -0.78 -0.3115 -0.0844 -0.8965 -0.5293 0.527 -0.7715 -0.6743
000030 5a 37 a1 b3 f0 b9 9e b9 05 36 49 39 81 39 fb 3a
       0.4595 -0.2384 -0.742 -0.702 0.3762 0.6606 0.688 0.8726
000040 ee b9 5a b8 e1 b6 99 3b 9d b2 44 a0 af b8 df a8
       -0.741 -0.544 -0.43 0.9497 -0.2067 -0.00833 -0.5854 -0.03806
000050 28 b8 41 26 5f ba 58 37 6a 36 a4 34 2e ad 7d 1b
       -0.5195 0.02443 -0.7964 0.459 0.401 0.29 -0.08093 0.003656
000060 b5 39 55 b9 37 ba 17 39 df bb d2 b9 2a b9 ed b9
       0.7134 -0.6665 -0.777 0.636 -0.984 -0.7275 -0.6455 -0.7407
000070 7c 38 ce 38 45 b1 99 38 1b 38 aa ba ee bb 65 24
       0.5605 0.6006 -0.1647 0.5747 0.513 -0.833 -0.991 0.01717
000080 75 38 f9 3c 14 2d 25 b6 64 2e c2 be a3 31 e6 3a
       0.557 1.243 0.07935 -0.384 0.09985 -1.689 0.1761 0.8623
000090 8b b8 41 33 a2 3d a0 b7 b5 30 13 3c 5a bb 5c 34
       -0.568 0.2267 1.408 -0.4766 0.1471 1.019 -0.919 0.2725
0000a0 3a bc 0f 3b 37 3c 47 a6 29 b9 10 3a 7a 30 1c b8
       -1.057 0.8823 1.054 -0.02452 -0.645 0.758 0.1399 -0.5137
0000b0 2a b6 e8 b9 64 3b 1c bc 1a 3b 03 bc 0e bb dc 39
       -0.3853 -0.7383 0.924 -1.027 0.8877 -1.003 -0.882 0.7324
0000c0 5f 37 f9 ae e0 b5 08 3a cc b5 3d 39 26 b3 61 36
       0.4607 -0.10895 -0.3672 0.754 -0.3623 0.655 -0.2234 0.3987
0000d0 53 38 a5 bc 02 ad 73 b0 58 ba e7 b1 72 3d ce b0
       0.5405 -1.161 -0.07825 -0.139 -0.793 -0.1844 1.361 -0.1501
0000e0 77 bb 2c b8 73 b5 6f b8 dd 33 11 b1 4d 38 6e b9
       -0.933 -0.5215 -0.3406 -0.554 0.2457 -0.1583 0.5376 -0.6787
0000f0 7f 39 81 30 23 b6 c2 b6 ee 3b 7f 2f 73 3a 41 bc
       0.687 0.1407 -0.3835 -0.4224 0.991 0.1171 0.806 -1.063
000100 18 3a 3b b7 e6 b9 ac bb 61 b9 f4 3a c8 b7 20 35
       0.7617 -0.452 -0.7373 -0.959 -0.6724 0.869 -0.4863 0.3203
000110 d6 3b 04 b9 cb b8 7c 38 8c ba 5c 35 5b 38 73 bb
       0.9795 -0.627 -0.599 0.5605 -0.8184 0.335 0.5444 -0.931
000120 c8 33 86 38 f3 3d 16 bc 56 35 b6 b7 5d 36 90 3b
       0.2432 0.5654 1.487 -1.021 0.3335 -0.482 0.3977 0.9453
000130 1a 39 ca bb a3 b4 0d b8 24 bc 6f 3c 90 3c 7e b4
       0.6377 -0.9736 -0.2898 -0.5063 -1.035 1.108 1.141 -0.2808
000140 fc 3a c1 35 ee 3a 8c 38 79 b9 5e 37 e3 b6 04 38
       0.873 0.3596 0.866 0.5684 -0.684 0.4604 -0.4304 0.502
000150 ab b4 3e b8 7c 3c ac b8 20 b9 0f 3a a5 a9 90 2f
       -0.2917 -0.5303 1.121 -0.584 -0.6406 0.7573 -0.0441 0.11816
000160 f0 b8 9a 39 45 bc 1e 2f ec 3a 77 bd b4 b7 21 34
       -0.617 0.7 -1.067 0.1112 0.865 -1.366 -0.4814 0.258
000170 61 2d f2 3b a2 36 6d 3d e9 b8 67 30 81 38 da b8
       0.08405 0.993 0.4146 1.356 -0.614 0.1376 0.563 -0.6064
000180 81 33 e9 3a a6 b4 b9 bb 51 39 10 ba 49 3b 4f 39
       0.2345 0.864 -0.2905 -0.9653 0.6646 -0.758 0.9106 0.6636
000190 03 b8 59 ba ca 38 0c 39 cc 35 aa b1 c9 3a e8 3e
       -0.5015 -0.7935 0.5986 0.631 0.3623 -0.177 0.848 1.727
0001a0 97 bd bd 38 57 3b 1d 3c 9d bc fe b9 fe 34 7e b7
       -1.397 0.5923 0.9175 1.028 -1.153 -0.749 0.312 -0.4683
0001b0 ea bb fd ba a0 b3 d0 ba 51 3d 73 36 26 b6 79 bc
       -0.9893 -0.8735 -0.2383 -0.8516 1.329 0.403 -0.3843 -1.118
0001c0 df b4 8a b8 03 b6 27 bd 44 ba fb 2d 9a 35 c3 bb
       -0.3044 -0.5674 -0.3757 -1.288 -0.783 0.09344 0.35 -0.97
0001d0 0a 38 3b 3b fc b6 71 37 db 32 01 3d 12 bc 5c ba
       0.505 0.904 -0.4365 0.465 0.2142 1.251 -1.018 -0.795
0001e0 10 ad 71 b8 87 3a f6 38 98 33 73 2b db 3a fa 36
       -0.0791 -0.555 0.816 0.62 0.2373 0.0582 0.857 0.436
0001f0 52 bb 54 33 89 31 10 3b 26 b7 1d b9 c5 b8 6c 35
       -0.915 0.229 0.173 0.883 -0.4468 -0.639 -0.596 0.3389

model/separable_conv2d_4/separable_conv2d/depthwise f2 [128]
000000 00 00 00 00 00 00 00 00 00 00 00 00 00 00 00 00
       0.0 0.0 0.0 0.0 0.0 0.0 0.0 0.0
000010 00 00 00 00 00 00 00 00 00 00 00 00 00 00 00 00
       0.0 0.0 0.0 0.0 0.0 0.0 0.0 0.0
000020 00 00 00 00 00 00 00 00 00 00 00 00 00 00 00 00
       0.0 0.0 0.0 0.0 0.0 0.0 0.0 0.0
000030 00 00 00 00 00 00 00 00 00 00 00 00 00 00 00 00
       0.0 0.0 0.0 0.0 0.0 0.0 0.0 0.0
000040 00 00 00 00 00 00 00 00 00 00 00 00 00 00 00 00
       0.0 0.0 0.0 0.0 0.0 0.0 0.0 0.0
000050 00 00 00 00 00 00 00 00 00 00 00 00 00 00 00 00
       0.0 0.0 0.0 0.0 0.0 0.0 0.0 0.0
000060 00 00 00 00 00 00 00 00 00 00 00 00 00 00 00 00
       0.0 0.0 0.0 0.0 0.0 0.0 0.0 0.0
000070 00 00 00 00 00 00 00 00 00 00 00 00 00 00 00 00
       0.0 0.0 0.0 0.0 0.0 0.0 0.0 0.0
000080 00 00 00 00 00 00 00 00 00 00 00 00 00 00 00 00
       0.0 0.0 0.0 0.0 0.0 0.0 0.0 0.0
000090 00 00 00 00 00 00 00 00 00 00 00 00 00 00 00 00
       0.0 0.0 0.0 0.0 0.0 0.0 0.0 0.0
0000a0 00 00 00 00 00 00 00 00 00 00 00 00 00 00 00 00
       0.0 0.0 0.0 0.0 0.0 0.0 0.0 0.0
0000b0 00 00 00 00 00 00 00 00 00 00 00 00 00 00 00 00
       0.0 0.0 0.0 0.0 0.0 0.0 0.0 0.0
0000c0 00 00 00 00 00 00 00 00 00 00 00 00 00 00 00 00
       0.0 0.0 0.0 0.0 0.0 0.0 0.0 0.0
0000d0 00 00 00 00 00 00 00 00 00 00 00 00 00 00 00 00
       0.0 0.0 0.0 0.0 0.0 0.0 0.0 0.0
0000e0 00 00 00 00 00 00 00 00 00 00 00 00 00 00 00 00
       0.0 0.0 0.0 0.0 0.0 0.0 0.0 0.0
0000f0 00 00 00 00 00 00 00 00 00 00 00 00 00 00 00 00
       0.0 0.0 0.0 0.0 0.0 0.0 0.0 0.0

model/separable_conv2d_4/separable_conv2d/depthwise1 f2 [1, 3, 3, 128]
000000 6c a9 22 aa 19 25 d9 2b 33 ac 89 2f 61 a8 33 a8
       -0.04236 -0.0479 0.01991 0.0613 -0.0656 0.11774 -0.0342 -0.0328
000010 be ac a7 1f 42 ac c7 2a 30 9c a9 19 f5 93 82 28
       -0.0741 0.007473 -0.0665 0.05295 -0.00409 0.002764 -0.0009713 0.03522
000020 62 28 4c ab 71 25 23 ac 8d 2d 0e 1f a9 2c dc 26
       0.03424 -0.057 0.02126 -0.06464 0.08673 0.00689 0.0728 0.0268
000030 27 28 d0 29 bf a6 19 1f 70 2a 52 ab e5 22 c2 26
       0.03244 0.0454 -0.02635 0.00693 0.0503 -0.0572 0.013466 0.0264
000040 e3 ab fb ad 51 2a 8c 20 af a3 be 9b 9c 19 40 1c
       -0.0616 -0.09344 0.04935 0.00888 -0.01501 -0.00378 0.002739 0.00415
000050 98 a4 89 14 b1 a9 a5 a0 f7 ab 36 ac 90 a7 48 1c
       -0.01794 0.001107 -0.04446 -0.00907 -0.06223 -0.0658 -0.02954 0.00418
000060 c2 a7 c1 2a 36 1d 42 a3 6c a9 fa 2b 8a a5 aa 1d
       -0.0303 0.05276 0.00509 -0.014175 -0.04236 0.06232 -0.02164 0.00553
000070 6c ac 2f aa b9 29 db 26 c2 09 df b0 b4 a9 ed 2c
       -0.0691 -0.0483 0.0447 0.02678 0.0001757 -0.1522 -0.04456 0.07697
000080 b4 a5 1a a8 a1 a7 f1 aa 26 21 58 a7 b3 a3 74 2b
       -0.02228 -0.03204 -0.0298 -0.05423 0.010056 -0.02869 -0.01504 0.05823
000090 99 23 21 ab 53 8e 01 24 a3 28 3c aa f4 aa 50 28
       0.01484 -0.0557 -0.000386 0.01564 0.03622 -0.0487 -0.05432 0.0337
0000a0 af 2a c4 24 a4 2c c7 28 e2 9d ed 2c 11 a8 1f 2a
       0.05222 0.01862 0.0725 0.03732 -0.005745 0.07697 -0.03177 0.04782
0000b0 c9 28 bb 2c 6b aa 82 99 36 a9 7a 2d 58 a8 d5 a4
       0.03738 0.0739 -0.05014 -0.00269 -0.0407 0.0856 -0.03394 -0.01888
0000c0 37 2b 51 25 d4 ae cf a7 66 2a a2 ad 78 1b ec 29
       0.05637 0.02077 -0.1067 -0.0305 0.05 -0.088 0.003647 0.04626
0000d0 56 2c f7 23 1f 1f e7 a7 5e 24 e8 25 6a 27 f0 29
       0.06775 0.01556 0.006954 -0.03087 0.01706 0.02307 0.02896 0.0464
0000e0 35 1c 4c ae aa ab 70 2a 8d 2c f7 a8 ed 2f a0 2b
       0.00411 -0.0984 -0.05988 0.0503 0.0711 -0.0388 0.12384 0.05957
0000f0 73 28 03 1a 4c 29 4d a8 ae aa f3 a8 b6 ac 6d 2c
       0.03476 0.002935 0.04138 -0.0336 -0.0522 -0.03867 -0.0736 0.06915
000100 b8 a9 82 a9 a4 a8 5b 24 b4 a2 c6 aa b4 a4 12 a9
       -0.04468 -0.04303 -0.03625 0.01701 -0.01309 -0.05292 -0.01837 -0.0396
000110 d0 a9 0e a7 b9 ac 94 2d 56 ac 60 15 eb 1f b3 24
       -0.0454 -0.02756 -0.0738 0.08716 -0.06775 0.001312 0.007732 0.01836
000120 f9 29 eb a5 9d ab 65 29 9f aa 87 a9 c0 a5 92 29
       0.04666 -0.02312 -0.05948 0.04214 -0.05173 -0.04318 -0.02246 0.04352
000130 07 2d 14 19 4b 2a f3 26 2e 24 bf 9b d3 26 23 28
       0.07855 0.00248 0.04916 0.02715 0.01633 -0.003782 0.02666 0.03232
000140 2a 28 87 1d 16 2b b3 24 16 ac 08 2b b0 1a ae ac
       0.03253 0.005398 0.05536 0.01836 -0.06384 0.05493 0.003265 -0.0731
000150 5f a5 90 2a a0 9e 73 a9 f6 a7 56 ac 5b 2d c9 a6
       -0.02098 0.05127 -0.00647 -0.04257 -0.0311 -0.06775 0.0837 -0.0265
000160 e4 2d 66 ad a2 a9 db 2a 4f 1e be 90 ca a7 fb 2a
       0.09204 -0.08435 -0.044 0.05356 0.00616 -0.000579 -0.03043 0.05453
000170 aa 27 19 a5 65 19 4c 28 30 2c 04 aa 53 28 ce 2c
       0.02994 -0.01991 0.002634 0.03357 0.0654 -0.047 0.03378 0.0751
000180 91 29 b7 ac a1 a8 59 ac e6 29 b5 a0 8d a9 1b a8
       0.0435 -0.07367 -0.03616 -0.06793 0.04608 -0.00919 -0.04337 -0.03207
000190 4a 2c 19 30 6a 2c 52 29 72 ac 73 2c 5c 2c 3a 26
       0.067 0.128 0.069 0.04156 -0.06946 0.0695 0.0681 0.02432
0001a0 2b 2e 31 2c ca 28 8e a2 a4 a2 f6 aa a5 26 02 1e
       0.0964 0.0655 0.0374 -0.0128 -0.01297 -0.05438 0.02596 0.005867
0001b0 9d a3 6d 2a ff 18 7c 29 02 25 35 98 6e 24 5f a5
       -0.01487 0.0502 0.00244 0.04285 0.01956 -0.002054 0.0173 -0.02098
0001c0 02 ac 50 a9 bf aa d0 ac 63 ab 00 2d a5 a8 43 a6
       -0.0626 -0.0415 -0.0527 -0.0752 -0.0577 0.0781 -0.0363 -0.02446
0001d0 c8 25 89 a5 68 2c 0b a9 ee 21 ee 2b cf 1e e9 25
       0.02258 -0.02162 0.06885 -0.0394 0.01158 0.06195 0.00665 0.02309
0001e0 a0 aa 86 27 69 ae c3 aa ab 29 7a a0 e2 2c 94 2d
       -0.05176 0.02939 -0.10016 -0.05283 0.04428 -0.00874 0.0763 0.08716
0001f0 19 ac 29 a7 62 28 f3 ad 8b a9 57 ad 2b ac 69 2a
       -0.064 -0.02797 0.03424 -0.09296 -0.0433 -0.08344 -0.0651 0.05008
