catroid/src/main/assets/model_lite_gender_q.tflite (tflite, 669552 bytes, 26 tensors)

model_2/dense_10/BiasAdd/ReadVariableOp/resource f2 [32]
000000 2c 25 70 26 1c 27 a7 28 9a 24 49 28 05 28 a7 25
       0.0202 0.02515 0.02777 0.03635 0.01797 0.03348 0.0314 0.02208
000010 81 26 f3 28 86 28 44 27 18 28 17 27 fa 27 dc 26
       0.0254 0.03867 0.03534 0.02838 0.03198 0.0277 0.03116 0.0268
000020 60 25 4f 28 e0 27 ae 28 3e 28 d5 26 da 26 e2 26
       0.021 0.03366 0.03076 0.03656 0.03314 0.02669 0.02676 0.02689
000030 ef 27 6f 28 5c 26 3c 27 0a 25 a1 27 c8 27 14 28
       0.03099 0.03464 0.02484 0.02826 0.01968 0.0298 0.0304 0.03186

model_2/dense_8/BiasAdd/ReadVariableOp/resource f2 [256]
000000 88 0c 91 05 00 80 49 0e 77 0d f6 09 e4 0c 8b 0d
       0.0002766 8.494e-05 -0.0 0.0003836 0.0003335 0.0001819 0.0002985 0.0003383
000010 8d 08 24 08 19 0d fd 00 00 80 99 0c c6 0c 55 0e
       0.0001389 0.0001264 0.0003111 1.51e-05 -0.0 0.0002806 0.0002913 0.0003865
000020 3b 00 00 00 31 0c a6 0e 50 11 fa 81 b4 0e 53 0f
       3.5e-06 0.0 0.0002558 0.0004058 0.0006485 -3.016e-05 0.0004091 0.000447
000030 1d 0b fa 0e 00 80 9f 0a 68 0c 30 0c 88 0c f9 0c
       0.0002171 0.0004258 -0.0 0.0002021 0.000269 0.0002556 0.0002766 0.0003035
000040 66 0d 08 00 da 08 02 80 0a 0a 11 0a b4 0a 48 02
       0.0003295 5e-07 0.000148 -1e-07 0.0001843 0.0001851 0.0002046 3.48e-05
000050 32 0d ae 08 4f 10 f3 0a 48 0c 55 09 00 00 ec 8b
       0.000317 0.0001428 0.000526 0.0002121 0.0002613 0.0001627 0.0 -0.0002418
000060 00 00 db 10 20 08 ff 11 c4 04 80 0c 08 0f 36 09
       0.0 0.0005927 0.0001259 0.000732 7.27e-05 0.0002747 0.0004292 0.000159
000070 4d 0a f8 0f 6a 10 36 0f ae 0d 25 0e 00 00 f3 03
       0.0001923 0.0004864 0.000539 0.0004401 0.0003467 0.000375 0.0 6.026e-05
000080 01 0c a2 0d a0 0e 00 00 71 0a 1e 0d dd 00 e9 10
       0.0002444 0.0003438 0.0004044 0.0 0.0001966 0.0003123 1.32e-05 0.0005994
000090 63 11 28 11 2b 80 08 10 6b 0a 72 0b 19 0c 41 80
       0.0006576 0.0006294 -2.56e-06 0.000492 0.0001959 0.0002272 0.00025 -3.9e-06
0000a0 96 07 89 0a 74 10 6d 05 01 00 02 0c 62 08 90 0a
       0.00011575 0.0001994 0.0005436 8.28e-05 6e-08 0.0002446 0.0001338 0.0002003
0000b0 00 80 00 04 ac 09 25 06 4b 0d 15 0f eb 04 00 00
       -0.0 6.104e-05 0.0001731 9.376e-05 0.000323 0.0004323 7.504e-05 0.0
0000c0 00 00 14 0f 0c 81 de 85 45 11 36 85 49 0a 6e 10
       0.0 0.000432 -1.6e-05 -8.95e-05 0.0006433 -7.95e-05 0.0001918 0.0005407
0000d0 00 80 07 10 cf 09 27 10 7e 08 ec 11 4a 0a 46 12
       -0.0 0.0004916 0.0001773 0.000507 0.0001371 0.000723 0.0001919 0.000766
0000e0 00 00 00 00 ad 0e 87 0a 00 80 5b 0d a6 84 10 0e
       0.0 0.0 0.0004075 0.0001992 -0.0 0.0003269 -7.09e-05 0.00037
0000f0 c1 04 5d 83 00 80 2c 10 2a 11 fc 07 5b 11 69 0f
       7.254e-05 -5.13e-05 -0.0 0.0005093 0.0006304 0.00012183 0.0006537 0.0004523
000100 9c 0d 00 80 2a 10 00 80 6a 11 00 80 06 80 75 01
       0.0003424 -0.0 0.0005083 -0.0 0.000661 -0.0 -3.6e-07 2.223e-05
000110 de 09 0b 0f ad 07 00 80 4f 0c 28 10 67 05 84 0c
       0.000179 0.0004299 0.0001171 -0.0 0.000263 0.0005074 8.243e-05 0.0002756
000120 00 00 00 80 a3 0c 82 09 63 11 bb 0b a8 0b ad 0f
       0.0 -0.0 0.000283 0.0001681 0.0006576 0.0002359 0.0002337 0.0004685
000130 7e 03 18 0d e7 08 ef 09 1c 0d 25 10 3d 05 4e 10
       5.33e-05 0.000311 0.0001496 0.0001811 0.0003119 0.000506 7.993e-05 0.0005255
000140 b6 09 c7 0c 04 11 78 05 f5 0d 01 80 ac 0b ea 84
       0.0001743 0.0002916 0.0006123 8.345e-05 0.0003636 -6e-08 0.0002341 -7.5e-05
000150 00 80 78 11 71 0c 0d 12 f1 02 42 0f ed 0e 00 80
       -0.0 0.0006676 0.000271 0.0007386 4.49e-05 0.000443 0.0004227 -0.0
000160 2f 0c 00 80 7d 07 8a 00 00 80 84 10 56 0d 0b 0c
       0.0002553 -0.0 0.00011426 8.2e-06 -0.0 0.000551 0.0003257 0.0002468
000170 1d 14 c1 11 77 05 09 87 bc 0a 25 09 5f 03 88 08
       0.001004 0.0007024 8.34e-05 -0.00010735 0.0002055 0.000157 5.144e-05 0.0001383
000180 02 0d 75 0c a0 0d 02 00 3d 01 d2 0e 42 0e 3c 13
       0.0003057 0.000272 0.0003433 1e-07 1.89e-05 0.0004163 0.000382 0.000883
000190 22 11 98 10 6b 0b 92 02 6e 0f 6e 0d 08 00 08 80
       0.0006266 0.0005608 0.0002264 3.92e-05 0.0004535 0.0003314 5e-07 -5e-07
0001a0 52 10 a3 12 68 0c ad 82 7f 08 00 80 00 00 ec 11
       0.0005274 0.00081 0.000269 -4.08e-05 0.0001372 -0.0 0.0 0.000723
0001b0 00 00 00 80 4d 86 7c 0e 00 80 bf 0f 1f 11 02 0c
       0.0 -0.0 -9.614e-05 0.0003958 -0.0 0.0004728 0.000625 0.0002446
0001c0 5c 00 25 09 21 0e f0 09 0d 08 56 86 02 07 01 80
       5.5e-06 0.000157 0.000374 0.0001812 0.0001236 -9.67e-05 0.00010693 -6e-08
0001d0 00 00 b8 02 58 0d 4a 0a fc 06 a5 0c ce 0b de 10
       0.0 4.15e-05 0.0003262 0.0001919 0.0001066 0.0002835 0.0002382 0.000594
0001e0 01 80 0c 12 00 80 00 80 00 00 3e 02 8d 80 07 0f
       -6e-08 0.000738 -0.0 -0.0 0.0 3.42e-05 -8.4e-06 0.000429
0001f0 5f 0c 94 83 b6 0a 68 0b a6 02 81 81 ab 0c 0b 11
       0.0002668 -5.46e-05 0.0002048 0.000226 4.04e-05 -2.295e-05 0.000285 0.0006156

model_2/dense_9/BiasAdd/ReadVariableOp/resource f2 [64]
000000 da 1c 54 1c de 1c ba 1d ad 1d 5a 1d 3f 1d 58 1c
       0.004738 0.004227 0.004753 0.005592 0.005543 0.005226 0.005123 0.004242
000010 52 1d 62 1d de 1c 13 1d d6 1d f5 1c 7c 1c d2 1c
       0.005196 0.005257 0.004753 0.004955 0.0057 0.00484 0.00438 0.004707
000020 35 1c a2 1c 05 1d 6e 1d 3f 1d 54 1c 69 1c 3f 1c
       0.00411 0.004524 0.0049 0.005302 0.005123 0.004227 0.004307 0.004147
000030 76 1c 2e 1d 93 1c 44 1c 00 80 ce 1c 3a 1c 94 1c
       0.004356 0.00506 0.004467 0.004166 -0.0 0.004692 0.004128 0.00447
000040 1b 1c 3a 1c c2 1c 04 1e 7f 1c c3 1c 08 1d 1a 1b
       0.00401 0.004128 0.004646 0.005875 0.00439 0.00465 0.004913 0.003468
000050 f8 1c af 1c 01 1d 41 1b 08 1d 77 1d 9b 1c 84 1c
       0.004852 0.004574 0.004887 0.003542 0.004913 0.005337 0.004498 0.00441
000060 42 1d 7f 1d 5c 1c ba 1c 00 80 4e 1e 46 1d 5c 1c
       0.005135 0.005367 0.004257 0.004616 -0.0 0.006157 0.00515 0.004257
000070 06 1d 67 1c 6a 1c 17 1d ff 1c d6 1c fe 1d ca 1d
       0.004906 0.0043 0.00431 0.00497 0.00488 0.004723 0.00585 0.005653

model_2/dense_10/MatMul f2 [32, 64]
000000 40 20 b7 9c 0e 1f 82 20 a8 20 cc 1f 37 20 dc 1f
       0.0083 -0.004604 0.00689 0.008804 0.009094 0.007614 0.00823 0.007675
000010 a0 9d da 9d f5 9d 04 20 a5 20 e3 9d f2 1e a7 9d
       -0.005493 -0.005714 -0.005817 0.00784 0.00907 -0.00575 0.006783 -0.00552
000020 1d 9d 08 9d 05 20 34 21 41 20 0b 1f fe 9c 96 1f
       -0.004993 -0.004913 0.00785 0.01016 0.00831 0.006878 -0.004875 0.00741
000030 90 9d 71 1f 6d 1f 1a 1f 00 80 03 20 08 9d f2 9c
       -0.005432 0.007267 0.00725 0.006935 -0.0 0.007835 -0.004913 -0.00483
000040 ef 9c fa 9c 73 9d 2d 21 b0 1f 70 9d 77 20 9c 1d
       -0.004818 -0.00486 -0.00532 0.01011 0.007507 -0.00531 0.00872 0.005478
000050 15 20 87 1f 31 20 d5 1d 8f 1f 36 20 75 9d 2e 1f
       0.00797 0.00735 0.00819 0.005695 0.00738 0.008224 -0.00533 0.00701
000060 a1 9d 47 20 94 9d 60 9d 00 80 a6 20 dd 1f 1b 1f
       -0.005497 0.008354 -0.005447 -0.00525 -0.0 0.00908 0.00768 0.00694
000070 bb 9d 27 9d 12 1f 0f 1f 1e 20 7e 1f f3 20 6a 9e
       -0.005596 -0.00503 0.006905 0.006893 0.00804 0.007317 0.00967 -0.006264
000080 9d 9c e9 22 83 9c 81 9d 43 9d 7c 9c 00 9d 67 9c
       -0.004505 0.0135 -0.004406 -0.005375 -0.00514 -0.00438 -0.004883 -0.0043
000090 20 24 dd 23 1c 24 7f 9c 8d 9d 53 23 6d 9c fa 23
       0.01611 0.01536 0.01605 -0.00439 -0.00542 0.014305 -0.004322 0.01558
0000a0 fa 22 83 23 92 9c 46 9d 07 9d 06 9c 0c 23 52 9c
       0.013626 0.01467 -0.004463 -0.00515 -0.00491 -0.00393 0.01376 -0.00422
0000b0 1c 23 93 9c 16 9c 14 9c 00 00 84 9c 5e 23 9f 23
       0.013885 -0.004467 -0.00399 -0.003983 0.0 -0.00441 0.01439 0.014885
0000c0 84 23 28 23 d8 23 7a 9d 1a 9c b2 23 24 9d 16 9b
       0.01468 0.01398 0.01532 -0.00535 -0.004005 0.01503 -0.00502 -0.00346
0000d0 5c 9c 94 9c 0f 9d 5f 9b 40 9c a7 9c d5 23 ca 9b
       -0.004257 -0.00447 -0.00494 -0.0036 -0.00415 -0.004543 0.0153 -0.003803
0000e0 30 24 bd 9d 68 23 b3 23 00 00 52 9e cf 9c 18 9c
       0.01636 -0.005604 0.014465 0.01504 0.0 -0.006172 -0.004696 -0.003998
0000f0 a9 23 56 23 62 9c ba 9c 9e 9c bc 9c 9e 9d 1d 24
       0.01496 0.01433 -0.00428 -0.004616 -0.00451 -0.004623 -0.005486 0.01607
000100 ae 21 3b 9f 20 21 fc 21 22 22 3c 21 e0 21 d8 21
       0.01109 -0.00706 0.01001 0.01169 0.01198 0.01022 0.011475 0.01141
000110 23 a0 21 a0 6b a0 79 21 59 22 ea 9f 14 21 d8 9f
       -0.00808 -0.008064 -0.00863 0.01069 0.0124 -0.00773 0.00992 -0.00766
000120 18 9f 87 9f 90 21 4d 23 d7 21 04 21 86 9f 22 21
       -0.006927 -0.00735 0.010864 0.01426 0.011406 0.009796 -0.007347 0.010025
000130 da 9f 22 21 e8 20 e4 20 00 80 8a 21 6b 9f 2d a0
       -0.007668 0.010025 0.00958 0.00955 -0.0 0.01082 -0.007244 -0.008156
000140 67 9f 16 9f 8e 9f 35 23 38 21 00 a0 26 22 02 20
       -0.00723 -0.00692 -0.007378 0.01408 0.01019 -0.007812 0.01201 0.00783
000150 bd 21 82 21 f3 21 41 20 a9 21 ff 21 2a a0 f2 20
       0.01121 0.01076 0.01162 0.00831 0.011055 0.01171 -0.00813 0.00966
000160 54 a0 72 22 23 9f 20 a0 00 80 ea 22 4c 21 c1 20
       -0.00845 0.01259 -0.00697 -0.00806 -0.0 0.013504 0.010345 0.009285
000170 2c a0 87 9f 31 21 ba 21 5a 21 b5 21 f5 22 6c a0
       -0.00815 -0.00735 0.01014 0.011185 0.01045 0.01115 0.01359 -0.00864
000180 58 9f 62 25 4b 9f 5e a0 6c a0 e1 9f b8 9f 34 9f
       -0.00717 0.02103 -0.007122 -0.00853 -0.00864 -0.007694 -0.007538 -0.007034
000190 d3 25 c4 25 da 25 4a 9f 3e a0 5a 25 20 9f a6 25
       0.02275 0.02252 0.02286 -0.00712 -0.008286 0.0209 -0.006958 0.02206
0001a0 41 25 5b 25 3c 9f 7f a0 85 9f 8b 9e 26 25 82 9e
       0.02052 0.02092 -0.007065 -0.00878 -0.007343 -0.00639 0.02011 -0.006355
0001b0 6d 25 18 9f 56 9e 48 9e 00 00 27 9f 34 25 7c 25
       0.0212 -0.006927 -0.006187 -0.006134 0.0 -0.006985 0.02032 0.02142
0001c0 8a 25 4b 25 5f 25 a8 a0 e9 9e 96 25 e2 9f 72 9d
       0.02164 0.02068 0.02098 -0.009094 -0.00675 0.02182 -0.007698 -0.005318
0001d0 59 9f 38 9f 4e 9f 60 9d 9e 9f 7f 9f b2 25 b1 9d
       -0.007175 -0.00705 -0.007133 -0.00525 -0.00744 -0.00732 0.02225 -0.005558
0001e0 ed 25 04 a0 45 25 a9 25 00 00 e6 a0 f6 9f ae 9e
       0.02315 -0.00784 0.02058 0.02211 0.0 -0.00957 -0.007774 -0.006523
0001f0 bb 25 30 25 bd 9e 51 9f 3c 9f b2 9f 45 a0 f8 25
       0.02238 0.02026 -0.00658 -0.007145 -0.007065 -0.007515 -0.00834 0.02332

model_2/dense_11/MatMul f2 [2, 32]
000000 26 b5 dc 31 18 b7 2e 3b 17 b1 2d 39 05 39 25 2f
       -0.3218 0.1831 -0.4434 0.8975 -0.159 0.647 0.6274 0.11163
000010 81 b2 e8 3a a7 39 4d b6 98 ba ef b9 4a b9 82 35
       -0.2032 0.8633 0.7065 -0.3938 -0.824 -0.7417 -0.661 0.3442
000020 16 b5 5b 3a 07 b9 e5 3a 49 b9 22 b4 7a b9 53 38
       -0.3179 0.7944 -0.6284 0.862 -0.6606 -0.2583 -0.6846 0.5405
000030 a6 b8 5e ba 37 b4 35 39 40 b9 b0 35 93 b8 71 b8
       -0.581 -0.796 -0.2634 0.651 -0.6562 0.3555 -0.572 -0.555
000040 43 37 86 ba 5c 39 f5 b9 60 38 cc ba 90 b9 2b ba
       0.4539 -0.8154 0.67 -0.7446 0.547 -0.8496 -0.6953 -0.771
000050 6d 3a 46 bb b2 ba 5f 3a 02 38 cf 36 49 39 1e ba
       0.803 -0.909 -0.837 0.7964 0.501 0.4255 0.6606 -0.7646
000060 e3 37 f0 b8 5a 39 61 ba a7 39 50 3a 70 36 a5 b8
       0.493 -0.617 0.669 -0.7974 0.7065 0.789 0.4023 -0.5806
000070 79 39 2b 3a fb 39 3f b8 0e 30 3d bb b5 39 f5 39
       0.684 0.771 0.7476 -0.531 0.1267 -0.905 0.7134 0.7446

model_2/dense_8/MatMul f2 [256, 1024]
000000 b4 0d 76 0f 16 10 0f 04 1f 0c 41 0f a0 0b f3 0b
       0.000348 0.0004554 0.000499 6.19e-05 0.0002515 0.0004427 0.0002327 0.0002426
000010 1c 0d 2d 09 c0 0d 02 0f 46 0c 24 0c 8f 10 d4 10
       0.0003119 0.000158 0.000351 0.0004277 0.0002608 0.0002527 0.0005565 0.0005894
000020 df 0f 90 09 ec 08 4e 10 ef 10 a7 0e 33 0e 1e 0e
       0.0004804 0.0001698 0.0001502 0.0005255 0.0006022 0.000406 0.0003784 0.0003734
000030 2e 0f 5a 0e e3 0f c8 0b eb 0e 1f 0c 15 0e af 0f
       0.0004382 0.0003877 0.0004814 0.0002375 0.0004222 0.0002515 0.0003712 0.000469
000040 74 0a 06 0d 21 0b 07 06 fb 0f e4 0b 6d 0d a2 11
       0.0001969 0.0003066 0.0002176 9.197e-05 0.000487 0.0002408 0.0003312 0.0006876
000050 a8 09 29 0c 28 0b 06 0b 37 09 61 0f 71 0a ab 0c
       0.0001726 0.000254 0.0002184 0.0002143 0.0001591 0.0004504 0.0001966 0.000285
000060 a9 09 e7 0a 90 0c f7 10 20 10 09 09 3c 0a 9d 0b
       0.0001727 0.0002106 0.0002785 0.000606 0.0005035 0.0001537 0.0001903 0.0002323
000070 48 01 bd 0c ef 0f 33 0d fe 09 a1 0c 45 05 51 10
       1.955e-05 0.0002892 0.0004842 0.0003173 0.0001829 0.0002825 8.04e-05 0.000527
000080 1f 0b 86 0e 42 0e de 0c e4 83 9b 04 db 0c c5 0e
       0.0002173 0.0003982 0.000382 0.000297 -5.937e-05 7.03e-05 0.0002964 0.0004132
000090 8b 10 97 0c 62 11 59 0c 91 03 08 10 14 0d 73 0e
       0.0005546 0.0002801 0.000657 0.0002654 5.44e-05 0.000492 0.00031 0.0003936
0000a0 76 0b cf 0e 5b 10 86 0f 97 0f a2 02 ca 81 b6 06
       0.0002277 0.0004156 0.0005317 0.0004592 0.0004632 4.02e-05 -2.73e-05 0.0001024
0000b0 1a 0c ea 01 07 0d 25 0d 19 0b f6 0c d1 08 6b 10
       0.0002503 2.92e-05 0.0003068 0.000314 0.0002166 0.0003028 0.000147 0.0005393
0000c0 bd 10 4e 0d 17 04 09 10 4b 08 1d 0a b4 0d 73 0b
       0.0005784 0.0003238 6.24e-05 0.0004926 0.000131 0.0001866 0.000348 0.0002273
0000d0 c3 0e 38 10 a7 0c 53 0e f5 0b 0e 0e 45 10 d4 0c
       0.0004127 0.000515 0.000284 0.000386 0.0002428 0.0003695 0.000521 0.0002947
0000e0 4e 0e 3b 0a 79 0f 2b 04 94 0c 75 0c b4 10 a3 0e
       0.0003848 0.0001901 0.000456 6.36e-05 0.0002794 0.000272 0.000574 0.000405
0000f0 bb 0e 8e 05 80 0e 4d 0a 6b 82 e1 0d 9b 0f 58 0e
       0.0004108 8.476e-05 0.0003967 0.0001923 -3.69e-05 0.0003588 0.0004642 0.0003872
000100 1a 07 b0 0c 5d 10 5c 0c 4b 0b 55 0d 83 0d e3 0c
       0.00010836 0.000286 0.0005326 0.000266 0.0002226 0.0003254 0.0003364 0.0002983
000110 26 0d 0a 0d 0e 0f 52 09 a8 10 1d 08 a4 05 87 0b
       0.0003142 0.0003076 0.0004306 0.0001624 0.0005684 0.0001255 8.607e-05 0.0002297
000120 cd 06 20 0a db 0c d3 0d 8f 08 c2 83 cc 0f ad 0f
       0.0001038 0.0001869 0.0002964 0.0003555 0.0001391 -5.734e-05 0.000476 0.0004685
000130 ec 07 e9 0e 69 0d 01 0d 95 0f e3 0c ca 08 62 0d
       0.0001209 0.0004218 0.0003302 0.0003054 0.0004628 0.0002983 0.0001462 0.0003285
000140 a0 0e e3 0c 52 0e 3b 0d 38 0e 16 0f 3e 10 32 0d
       0.0004044 0.0002983 0.0003858 0.0003192 0.0003796 0.0004325 0.000518 0.000317
000150 2d 0e b6 0d d5 06 74 0d f4 0d e5 0c cb 0d 59 10
       0.000377 0.0003486 0.00010425 0.0003328 0.0003633 0.0002987 0.0003536 0.0005307
000160 78 0f 6e 11 c6 10 8e 0a 44 10 33 0e 7e 06 aa 0c
       0.0004559 0.000663 0.0005827 0.0002 0.0005207 0.0003784 9.906e-05 0.0002847
000170 50 10 32 0f 88 06 99 06 ab 06 ca 08 8a 0c 28 0c
       0.0005264 0.0004392 9.966e-05 0.0001007 0.00010175 0.0001462 0.000277 0.0002537
000180 f6 0a d0 0b 7a 0d 58 0f e0 10 b5 0a 7d 0f 1f 0d
       0.0002124 0.0002384 0.0003343 0.0004482 0.000595 0.0002047 0.000457 0.0003126
000190 21 0c 2e 10 46 0d 7c 09 3b 0b b3 0d 86 0f 48 0d
       0.000252 0.00051 0.0003219 0.0001674 0.0002207 0.0003479 0.0004592 0.0003223
0001a0 2b 0a e8 0b 33 0f 76 01 ca 0c 5f 0b 61 09 82 0e
       0.0001882 0.0002413 0.0004394 2.23e-05 0.0002923 0.000225 0.0001642 0.0003972
0001b0 4b 0d c8 09 95 08 60 10 8d 10 22 10 a8 0e 36 0f
       0.000323 0.0001764 0.0001398 0.000534 0.0005555 0.0005045 0.0004063 0.0004401
0001c0 d1 10 b9 0e ea 0a c6 10 3e 0e 89 01 0a 0d 12 0f
       0.000588 0.0004103 0.000211 0.0005827 0.000381 2.34e-05 0.0003076 0.0004315
0001d0 a9 0a 46 09 db 10 aa 0d 56 10 c9 0b 88 0a 36 10
       0.0002033 0.0001609 0.0005927 0.0003457 0.0005293 0.0002376 0.0001993 0.000514
0001e0 a1 0c 42 00 f2 0c 48 11 14 11 47 0c 01 0d 8e 86
       0.0002825 3.93e-06 0.0003018 0.0006447 0.00062 0.000261 0.0003054 -0.0001
0001f0 cd 07 3f 0c 23 0e fb 10 56 03 a9 0f ef 0d 8a 0b
       0.00011903 0.0002592 0.0003746 0.000608 5.09e-05 0.0004675 0.0003622 0.0002301

model_2/dense_9/MatMul f2 [64, 256]
000000 02 0d ee 18 00 00 22 1d da 1c 82 1c 8c 0b 81 1d
       0.0003057 0.002407 0.0 0.005013 0.004738 0.004402 0.0002303 0.005375
000010 e0 1b 7e 1c 96 1b fa 1c 00 00 d0 1e b9 1d a1 12
       0.003845 0.004387 0.003704 0.00486 0.0 0.006653 0.00559 0.000809
000020 11 80 00 00 09 1d 84 1a 63 9c 4f 19 e9 98 02 9c
       -1e-06 0.0 0.004917 0.003181 -0.004284 0.002592 -0.002398 -0.003914
000030 e3 9a f1 1c 00 00 f0 1b 61 9c 7b 1c 53 1d 36 1d
       -0.003363 0.004826 0.0 0.003876 -0.004276 0.004375 0.0052 0.00509
000040 47 1a 01 00 de 1d 04 00 e7 1d 30 15 6d 97 7a 1e
       0.003065 6e-08 0.00573 2.4e-07 0.005764 0.0012665 -0.001813 0.006325
000050 b4 99 d8 1c 35 17 a7 9a 2f 99 87 9b 00 00 c3 17
       -0.002785 0.00473 0.00176 -0.003248 -0.002531 -0.003675 0.0 0.001895
000060 00 80 65 1a 2e 0e 46 15 07 99 6b 9b f9 15 2f 92
       -0.0 0.003122 0.0003772 0.001287 -0.002455 -0.003622 0.001458 -0.000755
000070 e9 98 94 9c da 1c 90 1d c3 9b a2 1c 00 00 9b 1e
       -0.002398 -0.00447 0.004738 0.005432 -0.00379 0.004524 0.0 0.00645
000080 c8 1a 97 9b 31 9c 00 80 d3 1d 49 9c ed 09 49 17
       0.003311 -0.003706 -0.004093 -0.0 0.005688 -0.004185 0.0001808 0.001779
000090 9d 16 71 17 b3 00 be 9b 67 1c 27 9b e4 16 28 80
       0.001615 0.001817 1.067e-05 -0.00378 0.0043 -0.003492 0.001682 -2.4e-06
0000a0 bf 9b 6a 9c 04 9c 4f 1d 7c 00 2b 9c 76 9a 6a 1d
       -0.003782 -0.00431 -0.00392 0.005184 7.4e-06 -0.00407 -0.003155 0.005287
0000b0 01 00 08 9c d5 99 9c 9b 39 9b b3 9a 7d 1c 00 80
       6e-08 -0.003937 -0.002848 -0.003716 -0.003527 -0.003271 0.004383 -0.0
0000c0 00 80 b1 19 60 1b af 9b 4d 1c 7b 91 86 16 ee 1b
       -0.0 0.002779 0.003601 -0.003752 0.0042 -0.000669 0.001593 0.003872
0000d0 00 80 ac 9b 82 8d cd 18 25 1d 72 16 5d 9a 3b 18
       -0.0 -0.003746 -0.0003362 0.002344 0.005024 0.001574 -0.003107 0.002066
0000e0 00 80 00 00 06 16 53 1a 00 00 d2 17 d1 1c ab 99
       -0.0 0.0 0.001471 0.003088 0.0 0.001909 0.004704 -0.002768
0000f0 21 1c 1e 1d 00 00 f2 1d 7e 1b 36 9b b4 18 de 9c
       0.004032 0.004997 0.0 0.005806 0.003658 -0.003521 0.002296 -0.004753
000100 8a 1d 00 00 de 1c 00 80 43 18 00 00 03 00 69 16
       0.00541 0.0 0.004753 -0.0 0.00208 0.0 2e-07 0.001565
000110 25 83 63 1d 10 1c 00 00 9b 1d 60 9c 96 1c 82 1b
       -4.8e-05 0.00526 0.003967 0.0 0.005474 -0.004272 0.00448 0.003666
000120 00 00 00 00 22 9c c7 1d 11 17 56 9a a1 1c 40 9a
       0.0 0.0 -0.004036 0.005642 0.001725 -0.003094 0.00452 -0.003052
000130 46 1d e9 10 2d 1b e6 1d c1 18 78 9c 43 9a 21 1d
       0.00515 0.0005994 0.003504 0.00576 0.002321 -0.004364 -0.003057 0.00501
000140 84 1d 1e 99 dc 19 19 98 ed 1e ea 00 08 9b ec 99
       0.005386 -0.002499 0.002861 -0.002 0.006763 1.395e-05 -0.003433 -0.002892
000150 00 80 d9 1b 6c 14 3d 1b cb 1c 50 1d 48 19 00 80
       -0.0 0.003832 0.00108 0.003534 0.00468 0.005188 0.002579 -0.0
000160 bf 1d 00 80 28 98 f2 04 00 00 52 1c 2f 0c db 13
       0.00561 -0.0 -0.00203 7.546e-05 0.0 0.00422 0.0002553 0.000959
000170 dc 1a 04 18 87 8b ea 99 07 1e 96 1d 24 9c 6c 19
       0.00335 0.00196 -0.0002297 -0.002888 0.005886 0.005455 -0.004044 0.002647
000180 31 9c 11 99 1a 9c 04 00 1a 04 a9 9c f6 1c 09 1c
       -0.004093 -0.002474 -0.004005 2.4e-07 6.26e-05 -0.00455 0.004845 0.00394
000190 89 1d b7 9b e2 1c d9 9a 2c 19 3c 1d 19 80 e2 1c
       0.005405 -0.003767 0.00477 -0.003344 0.002525 0.00511 -1.5e-06 0.00477
0001a0 d5 18 d9 10 a1 1d 87 96 8c 9a 00 00 00 00 c3 9c
       0.00236 0.0005918 0.005497 -0.001594 -0.003197 0.0 0.0 -0.00465
0001b0 00 00 00 80 4c 10 22 1b 00 00 37 99 fb 9a 32 98
       0.0 -0.0 0.0005245 0.003483 0.0 -0.002546 -0.003408 -0.002048
0001c0 32 08 c5 9b 08 1e 48 19 51 9c 8d 87 d5 9b 04 80
       0.000128 -0.003794 0.00589 0.002579 -0.004215 -0.0001152 -0.003824 -2.4e-07
0001d0 00 80 10 1e 50 1d a2 98 89 9c 35 9c 63 1b 62 9c
       -0.0 0.00592 0.005188 -0.002262 -0.00443 -0.00411 0.003607 -0.00428
0001e0 03 80 1d 17 00 80 00 80 00 00 5e 9a 48 9c 30 9c
       -2e-07 0.001737 -0.0 -0.0 0.0 -0.003109 -0.00418 -0.00409
0001f0 18 1a 23 20 27 99 e6 9a 1c 9b 5a 9b 28 17 7f 1c
       0.002975 0.00808 -0.002516 -0.003368 -0.003471 -0.00359 0.001747 0.00439

model_2/separable_conv2d/separable_conv2d/depthwise1 f2 [1, 3, 3, 3]
000000 59 a7 10 34 20 af 6d 34 58 34 6b b5 5d 35 22 22
       -0.0287 0.254 -0.1113 0.2766 0.2715 -0.3386 0.3352 0.01198
000010 ea b5 c9 b5 81 24 1d 34 1c 30 10 b4 79 33 9f 30
       -0.3696 -0.3616 0.0176 0.257 0.1284 -0.254 0.2335 0.1444
000020 fd b5 19 32 1c 35 a1 b4 6b 22 f1 2f eb b4 9b ae
       -0.3743 0.1906 0.3193 -0.2893 0.012535 0.1241 -0.3074 -0.1032
000030 58 2d dd 34 e1 2e
       0.0835 0.304 0.1075

model_2/separable_conv2d/separable_conv2d f2 [16, 1, 1, 3]
000000 38 42 6f c1 f8 40 6f 43 8b ab ee 40 23 40 0b c6
       3.11 -2.717 2.484 3.717 -0.05893 2.465 2.068 -6.043
000010 4b 45 20 42 4a c0 c5 bc 3f c6 36 c9 6c c8 56 bf
       5.293 3.062 -2.145 -1.192 -6.246 -10.42 -8.84 -1.834
000020 c7 c6 62 4a 93 be 5a 42 05 48 6f c2 06 3e 9d c3
       -6.777 12.766 -1.644 3.176 8.04 -3.217 1.506 -3.807
000030 6f c2 11 3e b9 3a 1f c3 b6 39 57 25 6c 42 09 bd
       -3.217 1.517 0.8403 -3.56 0.714 0.02086 3.21 -1.259
000040 6f bc c3 be 2c 42 34 47 5d 44 01 41 fd 38 1f 44
       -1.108 -1.69 3.086 7.203 4.363 2.502 0.6235 4.12
000050 d0 47 f4 c5 e6 42 1b bb 21 b4 72 c4 61 bd 06 c6
       7.812 -5.953 3.45 -0.888 -0.258 -4.445 -1.345 -6.023

model_2/separable_conv2d_1/separable_conv2d/depthwise f2 [16]
000000 00 00 00 00 00 00 00 00 00 00 00 00 00 00 00 00
       0.0 0.0 0.0 0.0 0.0 0.0 0.0 0.0
000010 00 00 00 00 00 00 00 00 00 00 00 00 00 00 00 00
       0.0 0.0 0.0 0.0 0.0 0.0 0.0 0.0

model_2/separable_conv2d_1/separable_conv2d/depthwise1 f2 [1, 3, 3, 16]
000000 27 ae 51 a9 54 30 07 31 24 b2 af b1 61 23 01 ac
       -0.0961 -0.04153 0.1353 0.1571 -0.1919 -0.1776 0.01441 -0.06256
000010 2f 30 64 2d 19 af 23 1e 1a 2a ad b0 6b ac a2 b0
       0.1307 0.0842 -0.1109 0.005993 0.04767 -0.1461 -0.06903 -0.1448
000020 70 2e 29 32 03 b0 8c b0 68 ab a4 31 65 2c cb 22
       0.1006 0.1925 -0.1254 -0.1421 -0.05786 0.1763 0.06866 0.01327
000030 ee 2b 9c aa c3 ad 0c 30 33 92 d1 b1 9e ad 27 1c
       0.06195 -0.05164 -0.09 0.1265 -0.0007567 -0.1818 -0.08777 0.004055
000040 f7 ad 40 b0 f3 2e a5 32 28 ae 06 b2 2f 30 11 ad
       -0.0932 -0.1328 0.1086 0.2076 -0.0962 -0.1882 0.1307 -0.07916
000050 32 2d 54 ad 14 a9 85 2a 56 26 e4 ae d1 b0 57 2f
       0.0812 -0.08325 -0.03967 0.05093 0.02475 -0.10767 -0.1505 0.1147
000060 a5 2f b0 b0 cf 22 99 30 52 ab b7 b1 9c 30 70 ab
       0.11945 -0.1465 0.0133 0.1437 -0.0572 -0.1786 0.144 -0.0581
000070 fa 24 26 a8 56 32 0b 2d a5 9f 67 2a c1 b1 9a b1
       0.01944 -0.0324 0.198 0.0788 -0.007465 0.05002 -0.1798 -0.175
000080 1d 2a 79 31 25 31 1c aa 26 2f b5 ad 44 31 3a 2d
       0.04776 0.171 0.1608 -0.04773 0.1117 -0.0892 0.1646 0.08167
000090 cb ad cd 2e 11 30 5a 31 6b 25 25 2a 96 1e 2b 31
       -0.0905 0.10626 0.1271 0.1672 0.02116 0.048 0.00643 0.1615
0000a0 23 2c 10 31 fe 2f 05 a9 80 2b 37 30 42 ae 46 b0
       0.06464 0.1582 0.1249 -0.0392 0.0586 0.1317 -0.0978 -0.1335
0000b0 18 26 42 af 73 b1 3f b0 87 30 aa 29 a3 30 ae b0
       0.0238 -0.1134 -0.1703 -0.1327 0.1415 0.04425 0.1449 -0.1462
0000c0 fa 28 17 af 04 b2 da ac 86 a1 d3 ad 5f a9 73 a2
       0.03888 -0.1108 -0.188 -0.0758 -0.01079 -0.091 -0.04196 -0.012596
0000d0 4d 32 49 a4 4b 28 20 31 13 2f e3 ab 74 b1 3b 31
       0.1969 -0.01674 0.03354 0.1602 0.11053 -0.0616 -0.1704 0.1635
0000e0 ec b1 3e 2f 2d 24 bb 2e 91 9e 5a 31 37 31 83 a8
       -0.185 0.11316 0.01631 0.10516 -0.006413 0.1672 0.163 -0.03525
0000f0 d5 2c 4e b1 c6 26 a7 2e fc ad dc 21 f1 ac f1 ac
       0.0755 -0.1658 0.02646 0.10394 -0.0935 0.011444 -0.0772 -0.0772
000100 a5 af 08 b2 e0 2d 77 ae 10 aa 4e a8 72 aa 4b b0
       -0.11945 -0.1885 0.0918 -0.101 -0.04736 -0.03363 -0.05035 -0.1342
000110 f0 21 75 b0 0d b0 4e 1c 2c 31 70 2c 17 32 35 32
       0.0116 -0.1393 -0.1266 0.004204 0.1616 0.06934 0.1903 0.194

model_2/separable_conv2d_1/separable_conv2d f2 [32, 1, 1, 16]
000000 8d b0 13 43 7a bc b7 bf 59 3e 0d 3e e0 3e 13 44
       -0.1422 3.537 -1.119 -1.929 1.587 1.513 1.719 4.074
000010 44 41 6c c0 f3 45 f8 30 29 44 59 b9 33 36 81 c6
       2.633 -2.21 5.95 0.1553 4.16 -0.6685 0.3875 -6.504
000020 fe c0 8c 36 8f 40 2f c1 ec 41 31 bd 72 43 ce 28
       -2.496 0.4092 2.28 -2.592 2.96 -1.298 3.723 0.03754
000030 a8 3e d5 42 ba c1 07 3d d9 bf 86 33 1c c2 fe c0
       1.664 3.416 -2.863 1.257 -1.962 0.2351 -3.055 -2.496
000040 ff c0 50 b7 73 c1 d1 40 9a c1 a3 3e 8d 3c 21 c3
       -2.498 -0.457 -2.725 2.408 -2.8 1.659 1.138 -3.564
000050 d6 3e 27 3f ea c2 2d c2 79 42 2a bd 58 b6 9e 34
       1.709 1.788 -3.457 -3.088 3.236 -1.291 -0.3965 0.2886
000060 bf 24 7f 3c 75 b9 04 b9 02 3f 3e 31 a2 b5 f7 3a
       0.01854 1.124 -0.682 -0.627 1.752 0.1638 -0.352 0.8706
000070 a1 b5 d6 3b 13 bb 98 34 21 38 52 3b f7 bc 20 b3
       -0.3518 0.9795 -0.8843 0.287 0.516 0.915 -1.241 -0.2227
000080 ca 2d 1a b8 ed bd cb 43 80 3e 66 43 6f b5 76 bf
       0.09045 -0.5127 -1.481 3.896 1.625 3.7 -0.3396 -1.865
000090 6b b9 c5 3c b8 3a fb 3d 18 3f 81 42 85 be 4a 3b
       -0.6772 1.192 0.84 1.495 1.773 3.252 -1.63 0.911
0000a0 34 c1 31 c2 f9 bd 15 be c5 41 47 42 f0 40 3c bc
       -2.602 -3.096 -1.493 -1.5205 2.885 3.139 2.469 -1.059
0000b0 fb be 18 42 1b 2d 1b 3c 49 3b cb 3d df 38 a3 c1
       -1.745 3.047 0.0798 1.026 0.9106 1.448 0.609 -2.818
0000c0 80 bf 4f bd 18 3c 02 3c 4f 3c 42 35 bc 3b 09 38
       -1.875 -1.327 1.023 1.002 1.077 0.3286 0.967 0.5044
0000d0 ba 33 fd bd e5 b7 30 3d 67 bd a4 3d 2e 3b 89 bc
       0.2415 -1.497 -0.4934 1.297 -1.351 1.41 0.8975 -1.134
0000e0 6a 3e 30 29 0b 38 63 3d af 37 9b 30 77 c0 26 bd
       1.604 0.04053 0.5054 1.347 0.4802 0.1439 -2.232 -1.287
0000f0 01 bd e2 3c d9 bd 1f 39 72 3f 30 30 7a 40 3b 40
       -1.251 1.221 -1.462 0.64 1.861 0.1309 2.238 2.115
000100 02 42 13 40 2a c0 89 c4 80 30 23 44 07 a9 fd 45
       3.004 2.037 -2.082 -4.535 0.1406 4.137 -0.03928 5.99
000110 47 44 a3 c4 3a bc 02 be c4 3c a0 bb 81 c4 52 bc
       4.277 -4.637 -1.057 -1.502 1.191 -0.953 -4.504 -1.08
000120 c2 35 4d 3b c8 2c 8d bd 1d b5 a8 36 c6 31 da 32
       0.3599 0.9126 0.0747 -1.388 -0.3196 0.416 0.1804 0.2141
000130 d5 37 6e bb 92 3a a1 37 33 3c 3e 34 65 3d 64 3b
       0.4895 -0.9287 0.8213 0.4768 1.05 0.2651 1.349 0.924
000140 5c c0 d0 3c 74 40 df 3b 39 3f 2f 41 17 36 57 bc
       -2.18 1.203 2.227 0.984 1.806 2.592 0.3806 -1.085
000150 da 40 8b ac 5d 39 6d 36 2e c0 52 36 ac ba f8 40
       2.426 -0.071 0.6704 0.4016 -2.09 0.395 -0.834 2.484
000160 79 ae e4 42 de be 62 41 b1 42 4f bb b8 40 00 3f
       -0.10114 3.445 -1.717 2.691 3.346 -0.9136 2.36 1.75
000170 7c ad 66 34 01 40 04 c1 4d 2c 8b bb 54 3c 7b 3a
       -0.0857 0.275 2.002 -2.508 0.0672 -0.943 1.082 0.81
000180 d6 ba 1d bc 43 b5 48 b1 66 3d da 2c 57 3c e9 1a
       -0.8545 -1.028 -0.3289 -0.165 1.35 0.0758 1.085 0.003374
000190 bd bc 6a ba 35 ba 4a bd 62 3d fd a1 85 bc 6a 2a
       -1.185 -0.802 -0.776 -1.322 1.346 -0.011696 -1.13 0.0501
0001a0 4c 3d f5 39 d3 36 b0 35 10 bc 4d 38 ee b6 f4 b6
       1.324 0.7446 0.4265 0.3555 -1.016 0.5376 -0.433 -0.4346
0001b0 b6 b9 00 ac 79 3d f7 ba b3 3c 3f bc 1c bd 16 b4
       -0.714 -0.0625 1.368 -0.8706 1.175 -1.062 -1.277 -0.2554
0001c0 c6 41 1a 34 d8 41 86 c4 29 3a 53 3d 54 bd f6 38
       2.887 0.2563 2.922 -4.523 0.77 1.331 -1.332 0.62
0001d0 dd 41 9b 43 fc 42 25 3e e4 3d b1 c2 7c 40 a1 c3
       2.932 3.803 3.492 1.536 1.473 -3.346 2.242 -3.814
0001e0 5a 3a c5 32 51 36 df b4 b4 3b 5e 39 4a ba 91 36
       0.794 0.2115 0.3948 -0.3044 0.963 0.671 -0.786 0.4104
0001f0 9a 2d a7 3a a3 30 b9 ac 58 39 a4 b0 e3 bb 80 b3
       0.0875 0.8315 0.1449 -0.0738 0.668 -0.145 -0.986 -0.2344

model_2/separable_conv2d_2/separable_conv2d/depthwise f2 [32]
000000 00 00 00 00 00 00 00 00 00 00 00 00 00 00 00 00
       0.0 0.0 0.0 0.0 0.0 0.0 0.0 0.0
000010 00 00 00 00 00 00 00 00 00 00 00 00 00 00 00 00
       0.0 0.0 0.0 0.0 0.0 0.0 0.0 0.0
000020 00 00 00 00 00 00 00 00 00 00 00 00 00 00 00 00
       0.0 0.0 0.0 0.0 0.0 0.0 0.0 0.0
000030 00 00 00 00 00 00 00 00 00 00 00 00 00 00 00 00
       0.0 0.0 0.0 0.0 0.0 0.0 0.0 0.0

model_2/separable_conv2d_2/separable_conv2d/depthwise1 f2 [1, 3, 3, 32]
000000 02 23 6c 1d 9b 2c 16 a9 b5 b0 32 af ff 26 19 28
       0.01369 0.005295 0.07196 -0.03973 -0.1471 -0.1124 0.02733 0.032
000010 d2 ac 15 2e 4a ac b4 2b 63 2d 99 26 e3 29 02 2f
       -0.0753 0.09503 -0.067 0.06018 0.08417 0.02577 0.046 0.1095
000020 3b 2d d0 2f 18 2b cb b0 5f ae 97 ae c4 22 90 ac
       0.0817 0.1221 0.05542 -0.1498 -0.09955 -0.10297 0.013214 -0.0713
000030 e3 ad ee 2c ed aa b6 23 35 2f 69 31 01 af 5a af
       -0.092 0.077 -0.0541 0.01506 0.1126 0.1691 -0.10944 -0.11487
000040 12 2e 18 a4 19 a4 3e a9 0c ae f2 2e f2 ad 21 2b
       0.09485 -0.01599 -0.016 -0.04095 -0.0945 0.1085 -0.0929 0.0557
000050 24 a9 e6 a8 28 b0 1b b0 e8 29 e4 2f d3 2d 16 30
       -0.04016 -0.03827 -0.1299 -0.1283 0.04614 0.1233 0.091 0.1277
000060 50 2c c4 30 d1 2d ed 29 16 24 94 b1 43 2c 37 ae
       0.0674 0.1489 0.0909 0.0463 0.01596 -0.1743 0.0666 -0.0971
000070 d6 a5 bf 2a 34 26 8f 2b 30 2f 67 ad 42 28 b9 ab
       -0.0228 0.0527 0.02423 0.05905 0.1123 -0.0844 0.03326 -0.06033
000080 12 9c d2 26 13 2c 67 ab 44 9e 61 aa 02 b0 66 ac
       -0.003975 0.02664 0.06366 -0.05783 -0.00612 -0.04984 -0.1252 -0.0687
000090 ae aa fb a9 f1 2f bf af 4d b0 64 af 4e a4 2e 22
       -0.0522 -0.04672 0.1241 -0.12103 -0.1344 -0.1155 -0.01682 0.01207
0000a0 27 ad 0e af 6f ae 9d 29 07 2d 36 28 2f a9 5d ad
       -0.0805 -0.1102 -0.1005 0.04385 0.07855 0.0329 -0.0405 -0.0838
0000b0 0a ad f8 af 78 20 94 aa 05 ad 9b a8 62 ac 60 30
       -0.07874 -0.1245 0.00873 -0.0514 -0.0784 -0.03598 -0.0685 0.1367
0000c0 0c 2e 63 24 5e a8 aa a9 fe ad 7b a6 ed a7 7f 2a
       0.0945 0.01714 -0.03412 -0.04425 -0.0936 -0.02531 -0.03096 0.05075
0000d0 bd a9 cb ab 28 2e 07 a6 19 30 e9 ac 0d af 97 a8
       -0.04483 -0.06088 0.0962 -0.02354 0.128 -0.0767 -0.11017 -0.03586
0000e0 9d af 34 2c f0 af 9f 29 b4 23 21 2e 6a 2a 4c 25
       -0.11896 0.0657 -0.124 0.0439 0.015045 0.09576 0.0501 0.02069
0000f0 e6 ab 0c 2a 2c 23 e9 ad 49 ad 82 2b b0 ad ab 2d
       -0.0617 0.04724 0.01401 -0.09235 -0.0826 0.05865 -0.08887 0.08856
000100 46 2b 19 a7 7f 8a 0c ae fd 26 a8 ab eb 2e 99 25
       0.05682 -0.02773 -0.0001982 -0.0945 0.0273 -0.0598 0.1081 0.02187
000110 9c 1d 8c af d8 1c 9c 2d 72 2a 71 ad ef ac 13 b0
       0.005478 -0.1179 0.00473 0.08765 0.05035 -0.085 -0.0771 -0.1273
000120 f7 2c fa ae aa 2e 2a 28 4d 2d 77 a2 08 a5 d1 a7
       0.0776 -0.109 0.1041 0.03253 0.0828 -0.01263 -0.01965 -0.03053
000130 95 9e 3c ae 19 a9 2d a5 ce ad 14 2e b6 ab 16 ad
       -0.006428 -0.0974 -0.03983 -0.02022 -0.0907 0.095 -0.06024 -0.07947
000140 46 28 36 29 90 aa c9 2a dd ad 7c 30 eb 22 a1 30
       0.0334 0.0407 -0.05127 0.053 -0.0916 0.1401 0.01351 0.1447
000150 4f 2a e7 2c 5f 28 ce ae e8 a9 44 26 a2 2e 8e 9e
       0.0493 0.0766 0.03415 -0.1063 -0.04614 0.02448 0.10364 -0.0064
000160 46 ad 27 2f aa 30 5d 2e 02 28 e2 ac 5b 2f 2d 2f
       -0.0824 0.11176 0.1458 0.0994 0.0313 -0.0763 0.1149 0.1121
000170 a7 ad 12 ac c6 ac cb 2f 38 ae 04 a0 42 2c 66 23
       -0.0883 -0.0636 -0.0746 0.12177 -0.09717 -0.00784 0.0665 0.01445
000180 44 2b 1f 2d cc a8 f7 ac 4b 30 11 21 d1 30 8c ad
       0.05676 0.08 -0.03748 -0.0776 0.1342 0.009895 0.1505 -0.0867
000190 08 a2 be 2e f7 a7 6b ad 6c 30 84 2b 7d 2f 7c 2f
       -0.01178 0.10535 -0.03111 -0.08466 0.1382 0.05872 0.117 0.11694
0001a0 f9 af 93 af 60 27 1b 2c 24 b0 48 29 de 29 c7 2b
       -0.1246 -0.11835 0.02881 0.06415 -0.1294 0.04126 0.04584 0.06076
0001b0 0a 30 0b ac cc 30 47 2c ed 27 df a0 a9 ae 6c 2b
       0.1262 -0.0632 0.1499 0.06683 0.03096 -0.009514 -0.10406 0.05798
0001c0 a5 ac 19 30 1e 1d 33 2d 18 30 25 2e 17 2d a4 2b
       -0.0726 0.128 0.004997 0.08124 0.1279 0.096 0.0795 0.0597
0001d0 33 28 97 a0 70 30 17 2a 9a af 93 a4 fc 2f d3 ac
       0.0328 -0.008965 0.1387 0.04758 -0.1188 -0.01787 0.12476 -0.0754
0001e0 8c ac 11 ad 1e 2f 48 ac 2e af e4 ac 8e 11 66 24
       -0.07104 -0.07916 0.1112 -0.0669 -0.1122 -0.0764 0.000678 0.01718
0001f0 86 2a 7b ad 5a 2d c8 ae 93 2d 13 ab 7a 2e c1 ad
       0.05096 -0.08563 0.0836 -0.10596 0.0871 -0.05527 0.1012 -0.0899

model_2/separable_conv2d_2/separable_conv2d f2 [64, 1, 1, 32]
000000 02 b8 01 3c 01 b8 11 c0 cb af df 3f 59 bc 70 bf
       -0.501 1.001 -0.5005 -2.033 -0.12177 1.968 -1.087 -1.859
000010 2e 3b bd 38 a8 41 10 bb 5a ba 3e b3 c0 c0 f4 30
       0.8975 0.5923 2.828 -0.883 -0.794 -0.2263 -2.375 0.1548
000020 2e 3c 46 b4 14 bf 5d 3f aa c0 bf 40 49 c0 db ba
       1.045 -0.267 -1.77 1.841 -2.332 2.373 -2.143 -0.857
000030 2f c1 c4 40 d5 3a 72 36 f6 b8 79 35 d9 b7 cf bc
       -2.592 2.383 0.854 0.4028 -0.62 0.342 -0.4905 -1.202
000040 e3 b3 ac bd 1e 3c 50 40 86 3f ad bd d8 3f 1b 37
       -0.2465 -1.418 1.029 2.156 1.881 -1.419 1.961 0.444
000050 73 be ee b9 4d b8 60 ac dc b9 7f 3c 23 40 82 3d
       -1.612 -0.741 -0.5376 -0.06836 -0.7324 1.124 2.068 1.377
000060 04 c0 20 41 22 3e 7f 40 a5 38 81 bf 85 bd 0f b8
       -2.008 2.562 1.533 2.248 0.5806 -1.876 -1.38 -0.5073
000070 c2 bc f3 b9 de 39 6d 35 04 32 c5 3e 6d 3a 81 15
       -1.189 -0.7437 0.7334 0.339 0.188 1.692 0.803 0.001344
000080 59 32 32 31 94 bc be 34 db bd 91 b1 36 3d 76 3d
       0.1984 0.1624 -1.145 0.2964 -1.464 -0.174 1.303 1.365
000090 75 bd c9 3a 7f bf 3a bf 07 b3 8f bc 67 be e9 bd
       -1.364 0.848 -1.874 -1.807 -0.2196 -1.14 -1.601 -1.478
0000a0 24 bf 79 3c 02 be 6a bb 54 b7 2f c0 a6 35 36 36
       -1.785 1.118 -1.502 -0.927 -0.458 -2.092 0.353 0.3882
0000b0 d5 bc 62 b8 71 b0 df 3c 02 bf 2e bd 70 bf ae 35
       -1.208 -0.548 -0.1388 1.218 -1.752 -1.295 -1.859 0.355
0000c0 1c b9 d3 3b c8 3d ec 3d ea 3f a8 39 88 bd 88 b7
       -0.6387 0.978 1.445 1.48 1.979 0.707 -1.383 -0.4707
0000d0 93 ac 6a 1d 66 bd b3 3a 2d b1 e6 3d fd 32 1f bb
       -0.0715 0.005287 -1.35 0.8374 -0.1617 1.475 0.2184 -0.89
0000e0 d9 3e 4d bf 5c b4 c6 be 41 3c 1d 40 6c 31 35 31
       1.712 -1.825 -0.2725 -1.693 1.063 2.057 0.1694 0.1627
0000f0 a9 40 d0 30 e8 2d ae 38 80 3d 24 ba 8f 31 58 b8
       2.33 0.1504 0.0923 0.585 1.375 -0.7676 0.1737 -0.543
000100 b4 40 9c bd 22 bb 50 b6 84 c0 c3 31 96 3a 80 20
       2.352 -1.402 -0.8916 -0.3945 -2.258 0.18 0.823 0.00879
000110 70 40 31 ba 99 b1 e9 bd 63 3f 95 3e 38 c1 a2 c0
       2.219 -0.774 -0.1749 -1.478 1.847 1.6455 -2.61 -2.316
000120 34 bb 2b c2 42 3d 75 3a 51 bf 1b b6 2a be ad b4
       -0.9004 -3.084 1.314 0.807 -1.829 -0.3816 -1.541 -0.2922
000130 78 3e aa 40 c7 bb 2f b5 81 bf 05 41 07 41 83 be
       1.617 2.332 -0.972 -0.324 -1.876 2.51 2.514 -1.628
000140 90 c0 94 b9 99 35 b3 3b 23 bf 7e c1 9f 3e 98 36
       -2.281 -0.6973 0.3499 0.9624 -1.784 -2.746 1.655 0.412
000150 e6 bf d4 c0 6a 3a a0 31 ed 3c e7 b9 49 3e 46 3a
       -1.975 -2.414 0.802 0.1758 1.231 -0.738 1.571 0.784
000160 07 3e f1 bc 8a ab d7 3c 62 36 78 c0 db b9 02 bc
       1.507 -1.235 -0.0589 1.21 0.399 -2.234 -0.732 -1.002
000170 53 b4 02 3d 09 3a 1a 3e 07 41 f0 3d 08 38 59 3e
       -0.2703 1.252 0.7544 1.525 2.514 1.484 0.504 1.587
000180 41 b6 c0 3e b8 35 87 36 eb b9 7b 3f b9 28 a0 bb
       -0.3909 1.6875 0.3574 0.408 -0.7397 1.87 0.0369 -0.953
000190 a0 3d c5 33 c0 b9 df 39 c9 3b 39 3b 6d 3b a8 2c
       1.406 0.2428 -0.7188 0.734 0.973 0.903 0.928 0.07275
0001a0 f3 b8 89 b4 72 bc 6c 38 17 b6 6e a3 5d 3c f4 be
       -0.6187 -0.2834 -1.111 0.5527 -0.3806 -0.01451 1.091 -1.738
0001b0 3d 38 47 bb d1 3b 3f b4 bf 3c d0 3e 29 38 ca be
       0.53 -0.9097 0.977 -0.2654 1.187 1.703 0.52 -1.697
0001c0 2d bf 50 2d fe c0 20 42 9f b8 8a 34 a3 3e c1 b8
       -1.794 0.083 -2.496 3.062 -0.5776 0.2837 1.659 -0.594
0001d0 11 bd 8a 40 36 3d 83 40 13 bd 01 3c 64 bd e3 3b
       -1.267 2.27 1.303 2.256 -1.269 1.001 -1.348 0.986
0001e0 16 37 c4 ba a2 be 9b 40 76 3c 49 3f c3 3d 0a bc
       0.4429 -0.8457 -1.658 2.303 1.115 1.821 1.44 -1.01
0001f0 55 b7 79 36 5f 3f c6 ba a2 40 e0 bf 46 b9 53 b9
       -0.4583 0.4045 1.843 -0.8467 2.316 -1.969 -0.659 -0.6655

model_2/separable_conv2d_3/separable_conv2d/depthwise f2 [64]
000000 00 00 00 00 00 00 00 00 00 00 00 00 00 00 00 00
       0.0 0.0 0.0 0.0 0.0 0.0 0.0 0.0
000010 00 00 00 00 00 00 00 00 00 00 00 00 00 00 00 00
       0.0 0.0 0.0 0.0 0.0 0.0 0.0 0.0
000020 00 00 00 00 00 00 00 00 00 00 00 00 00 00 00 00
       0.0 0.0 0.0 0.0 0.0 0.0 0.0 0.0
000030 00 00 00 00 00 00 00 00 00 00 00 00 00 00 00 00
       0.0 0.0 0.0 0.0 0.0 0.0 0.0 0.0
000040 00 00 00 00 00 00 00 00 00 00 00 00 00 00 00 00
       0.0 0.0 0.0 0.0 0.0 0.0 0.0 0.0
000050 00 00 00 00 00 00 00 00 00 00 00 00 00 00 00 00
       0.0 0.0 0.0 0.0 0.0 0.0 0.0 0.0
000060 00 00 00 00 00 00 00 00 00 00 00 00 00 00 00 00
       0.0 0.0 0.0 0.0 0.0 0.0 0.0 0.0
000070 00 00 00 00 00 00 00 00 00 00 00 00 00 00 00 00
       0.0 0.0 0.0 0.0 0.0 0.0 0.0 0.0

model_2/separable_conv2d_3/separable_conv2d/depthwise1 f2 [1, 3, 3, 64]
000000 c0 2d e5 28 81 9c 05 2a 36 28 53 9f 87 28 75 29
       0.08984 0.03824 -0.0044 0.04703 0.0329 -0.007153 0.03537 0.04263
000010 3b ac 97 a9 c2 2e bd 28 41 ad 45 29 67 29 c4 19
       -0.0661 -0.04367 0.1056 0.03702 -0.0821 0.04117 0.0422 0.002815
000020 70 ab 12 28 af 2a f6 a9 c9 26 e3 2d b5 aa 40 2c
       -0.0581 0.0318 0.05222 -0.04657 0.0265 0.092 -0.0524 0.0664
000030 11 ae 34 ae 9e a2 d6 ac 7c 2c 05 a8 94 ac c9 2d
       -0.0948 -0.0969 -0.012924 -0.07556 0.07007 -0.0314 -0.07153 0.0904
000040 db 2d b3 28 de a8 60 ac 78 2c 92 21 bb 29 f8 ad
       0.0915 0.0367 -0.03802 -0.06836 0.0698 0.01088 0.04477 -0.09326
000050 8d a4 04 23 7d 2e ad a8 1f 22 10 2a a0 ac 88 2a
       -0.01778 0.0137 0.1014 -0.03653 0.011955 0.04736 -0.07227 0.05103
000060 92 27 7d a0 07 ac 76 29 97 ac 2b 2c bf 20 8c 2e
       0.02957 -0.008766 -0.0629 0.04266 -0.0717 0.0651 0.00927 0.1023
000070 4a ac 0b a5 cb ad 4c 26 27 ac 9a 2c 59 2b 61 ac
       -0.067 -0.0197 -0.0905 0.0246 -0.0649 0.0719 0.0574 -0.0684
000080 ac 21 b0 a8 d2 2c ff 20 a0 9f 9f 2c 21 a6 0c a8
       0.01108 -0.03662 0.0753 0.00976 -0.007446 0.0722 -0.02394 -0.03162
000090 77 a3 53 ac aa 2e ae ac 27 a8 1d 2e ea ac 0b 2c
       -0.01458 -0.06757 0.1041 -0.0731 -0.03244 0.0955 -0.0768 0.0632
0000a0 99 a7 9a ab 89 ab 1e a8 38 24 11 2c bf 2d ed ab
       -0.02968 -0.0594 -0.05887 -0.03217 0.01648 0.06354 0.0898 -0.06192
0000b0 57 a2 09 ad b9 ac c6 2a 61 24 03 ac 5c a9 87 ac
       -0.01238 -0.0787 -0.0738 0.05292 0.0171 -0.0627 -0.04187 -0.07074
0000c0 22 27 cd 2f 45 ad a6 2c 44 a8 4e 28 13 27 86 2f
       0.02786 0.1219 -0.08234 0.07263 -0.03333 0.03363 0.02763 0.11755
0000d0 7f af cb 2c ea 2b bb 27 dc 1b ec 27 a6 a9 d3 19
       -0.1171 0.0749 0.06183 0.0302 0.003838 0.03094 -0.04413 0.002844
0000e0 97 8e 4f 1e ab a8 bc 2d 19 2e bb 2a 59 ac 85 26
       -0.0004022 0.00616 -0.03647 0.0896 0.0953 0.05258 -0.06793 0.02547
0000f0 40 28 b2 a6 0d af c3 ac 2a 2d 85 2a ac 2d 04 ac
       0.0332 -0.02615 -0.11017 -0.0744 0.0807 0.05093 0.0886 -0.06274
000100 06 a5 9b 29 f9 aa d8 2c 73 a5 53 2c 14 a4 17 2a
       -0.01962 0.0438 -0.05447 0.0757 -0.02129 0.06757 -0.01593 0.04758
000110 6e 27 ea a0 16 1f 3d 30 ad a9 ff a5 3b 31 14 20
       0.02902 -0.0096 0.00692 0.1324 -0.04434 -0.02342 0.1635 0.007965
000120 e3 2d 7d 2c 95 ac 6a 22 2c 29 ea a6 c1 a6 ba 27
       0.092 0.0701 -0.0716 0.01253 0.0404 -0.02701 -0.02638 0.03018
000130 83 a5 f5 a8 c5 ad 54 2a f4 2f 89 a9 b7 a9 6c ad
       -0.02153 -0.03873 -0.09015 0.04944 0.12427 -0.04324 -0.04465 -0.0847
000140 23 2f d3 ac f3 2c fb 28 9b 2c e0 24 b4 ab 05 aa
       0.1115 -0.0754 0.07733 0.0389 0.07196 0.01904 -0.06018 -0.04703
000150 d2 aa 6d 22 53 28 0c 25 1e a7 fa a9 de 22 87 2e
       -0.05328 0.01255 0.03378 0.01971 -0.0278 -0.0467 0.01341 0.102
000160 70 a8 2c 2f 96 a6 8d a2 b0 2f e6 28 73 aa c7 a7
       -0.03467 0.11206 -0.02573 -0.012794 0.1201 0.03827 -0.05038 -0.03038
000170 59 2c ef 27 5a 27 46 a8 a1 ae 26 a4 71 a5 ba 26
       0.06793 0.03099 0.02872 -0.0334 -0.1036 -0.0162 -0.02126 0.02628
000180 4c ac 1b 15 e1 2c 12 2e 15 29 fe a8 72 a9 03 ad
       -0.06714 0.001246 0.07623 0.09485 0.0397 -0.039 -0.04254 -0.0783
000190 22 a6 ae a9 69 9c aa a9 66 2e eb 27 6e a6 81 20
       -0.02396 -0.04437 -0.004307 -0.04425 0.1 0.03093 -0.02512 0.0088
0001a0 f7 28 d8 a7 cb 28 a3 a5 a5 a1 f1 a8 6f 2d c2 a4
       0.0388 -0.03064 0.03745 -0.02202 -0.011024 -0.0386 0.0849 -0.01859
0001b0 51 27 dc 27 eb 29 a9 28 14 af 2e 28 72 ae 7e 2d
       0.02858 0.0307 0.04623 0.0364 -0.1106 0.03265 -0.1007 0.0858
0001c0 b0 a9 49 a3 52 2d a6 a7 e6 21 d5 20 79 ad 27 aa
       -0.04443 -0.01423 0.0831 -0.02988 0.01152 0.00944 -0.0855 -0.04807
0001d0 64 20 d4 2b a7 a5 10 2d 26 26 a0 9f 30 2a d5 28
       0.008575 0.06116 -0.02208 0.0791 0.02402 -0.007446 0.04834 0.03775
0001e0 33 2a 9a 2d a3 a7 6e ad aa ac a0 ae d6 a6 2a 2c
       0.04843 0.0875 -0.02983 -0.08484 -0.0729 -0.1035 -0.0267 0.06506
0001f0 d1 aa bf 2f be a9 0c 06 5d aa cf 19 79 2a a8 9d
       -0.05325 0.12103 -0.04486 9.227e-05 -0.0497 0.002836 0.05057 -0.005524

model_2/separable_conv2d_3/separable_conv2d f2 [128, 1, 1, 64]
000000 f6 3d 7c 38 34 b6 4c 3b 1c 3e 0b bd 0d be 32 3e
       1.49 0.5605 -0.3877 0.912 1.527 -1.261 -1.513 1.549
000010 0c bd 43 b7 ef ba c5 35 99 36 7b b8 2f 41 ca 3d
       -1.262 -0.4539 -0.8667 0.3606 0.4124 -0.56 2.592 1.447
000020 61 ba 35 b9 56 3d 9a ad 9c bd e9 2d 3a 34 67 bc
       -0.7974 -0.651 1.334 -0.0875 -1.402 0.09235 0.2642 -1.101
000030 ca ba 0f 3d da 34 f2 3a ba 3c 51 3c 5f 34 00 b6
       -0.8486 1.265 0.3032 0.868 1.182 1.079 0.2732 -0.375
000040 88 3d 5c bd 6d 3d ad 3d 07 3d 0b ad 73 b9 33 af
       1.383 -1.34 1.356 1.419 1.257 -0.0788 -0.681 -0.1125
000050 a7 bf 6f ba e5 ba 9f ba 36 3d 7a 3d 85 b2 7c bc
       -1.913 -0.804 -0.862 -0.8276 1.303 1.369 -0.2037 -1.121
000060 15 39 4d 38 e8 3b c6 bb 07 3e ec ba e3 b9 18 c0
       0.6353 0.5376 0.9883 -0.9717 1.507 -0.865 -0.736 -2.047
000070 22 3f 40 bb 2e 39 6f bc ee b6 de bc f8 38 0c ba
       1.783 -0.9062 0.6475 -1.108 -0.433 -1.217 0.621 -0.756
000080 06 b1 6c 3b e6 b5 3c 3c 93 35 cf 3c 21 b9 2d 35
       -0.157 0.9277 -0.3687 1.059 0.3484 1.202 -0.641 0.3235
000090 c4 bd f5 bd 1b b6 4a b1 20 3d ca bb 91 3b 1b b8
       -1.441 -1.489 -0.3816 -0.1653 1.281 -0.9736 0.946 -0.513
0000a0 05 3d 73 b4 4e 38 96 24 81 3c 06 30 17 34 06 3c
       1.255 -0.278 0.538 0.01791 1.126 0.1257 0.2556 1.006
0000b0 8e 34 17 bb 18 bf 3d 30 20 b0 27 34 e8 30 05 31
       0.2847 -0.886 -1.773 0.1324 -0.1289 0.2595 0.1533 0.1569
0000c0 8c 3c cd bc 15 b9 fe 39 6f 38 ec 3b 63 3c 59 3d
       1.137 -1.2 -0.6353 0.749 0.554 0.99 1.097 1.337
0000d0 6e 3c ab ac 85 39 d5 38 ee bb c6 bc e3 bd 4d be
       1.107 -0.07294 0.69 0.604 -0.991 -1.193 -1.472 -1.575
0000e0 b1 b9 42 b3 ed bd 6d af cc 38 2c b6 71 3e b6 39
       -0.7114 -0.2268 -1.481 -0.116 0.5996 -0.3857 1.61 0.714
0000f0 c4 b0 a9 bc 11 3e 0c b4 ec bb 28 3a e2 bc 18 22
       -0.1489 -1.165 1.517 -0.253 -0.99 0.7695 -1.221 0.0119
000100 11 ba 1c 3c 49 b9 15 b8 84 be 86 2f 87 be d6 b1
       -0.7583 1.027 -0.6606 -0.5103 -1.629 0.11755 -1.632 -0.1824
000110 e0 29 94 36 37 3e 7b 36 74 bc 3d b6 db 3a 21 b5
       0.0459 0.4111 1.554 0.405 -1.113 -0.39 0.857 -0.3206
000120 2b 3d c9 bd 96 bd dd 3b 56 b9 f8 3b ca 35 7c 30
       1.292 -1.446 -1.396 0.983 -0.667 0.996 0.3618 0.1401
000130 ba 3b 3a 3d 97 ba ff 3e 69 36 cc 36 9c 29 a3 37
       0.966 1.307 -0.8237 1.749 0.4006 0.4248 0.04382 0.4773
000140 f7 36 e5 3b 2f 2d 8e b3 a9 38 20 3e bd be e9 ba
       0.4353 0.987 0.081 -0.2361 0.5825 1.531 -1.685 -0.864
000150 90 bd b4 af f3 bd c4 ba 79 38 cc 3b c9 b3 6d b8
       -1.391 -0.12036 -1.487 -0.8457 0.559 0.9746 -0.2433 -0.553
000160 37 3c 54 be 1c 40 d7 b9 30 3f 01 3c d1 b0 0e b1
       1.054 -1.582 2.055 -0.73 1.797 1.001 -0.1505 -0.158
000170 47 bd 06 bb b8 30 00 bc b4 3c b0 33 87 be 9d b9
       -1.319 -0.878 0.1475 -1.0 1.176 0.2402 -1.632 -0.7017
000180 d6 ba 08 bc 85 3d 65 3e 68 bb 53 34 92 bc e3 bc
       -0.8545 -1.008 1.38 1.599 -0.926 0.2703 -1.143 -1.222
000190 80 3e 8e ba 60 bc c2 b2 fa 3b 78 b3 d3 bc f2 bc
       1.625 -0.8193 -1.094 -0.2112 0.997 -0.2334 -1.206 -1.236
0001a0 43 ba 2d 39 86 36 e6 38 35 b5 63 36 3d be ab 3d
       -0.7827 0.647 0.4077 0.6123 -0.3254 0.3992 -1.56 1.417
0001b0 ae b7 18 be 06 40 f1 bc 27 bf f5 b8 0b b1 e8 3a
       -0.48 -1.523 2.012 -1.235 -1.788 -0.6196 -0.1576 0.8633
0001c0 49 3c 5c b2 3a 3d d3 3d 45 30 a4 af 5f b8 56 38
       1.071 -0.1987 1.307 1.456 0.1334 -0.1194 -0.5464 0.542
0001d0 26 3e 16 41 48 c0 d6 bc 58 2e c5 ba 97 b6 da 3c
       1.537 2.543 -2.14 -1.209 0.0991 -0.846 -0.4119 1.213
0001e0 98 b0 dd 39 1f 3f 19 c0 03 35 ec 3e 92 31 c1 33
       -0.1436 0.733 1.78 -2.049 0.3132 1.73 0.1741 0.2423
0001f0 a1 b8 84 c0 99 3e 84 3a 12 be 74 b9 08 bf 13 3b
       -0.5786 -2.258 1.649 0.8145 -1.518 -0.6816 -1.758 0.8843

model_2/separable_conv2d_4/separable_conv2d/depthwise f2 [128]
000000 00 00 00 00 00 00 00 00 00 00 00 00 00 00 00 00
       0.0 0.0 0.0 0.0 0.0 0.0 0.0 0.0
000010 00 00 00 00 00 00 00 00 00 00 00 00 00 00 00 00
       0.0 0.0 0.0 0.0 0.0 0.0 0.0 0.0
000020 00 00 00 00 00 00 00 00 00 00 00 00 00 00 00 00
       0.0 0.0 0.0 0.0 0.0 0.0 0.0 0.0
000030 00 00 00 00 00 00 00 00 00 00 00 00 00 00 00 00
       0.0 0.0 0.0 0.0 0.0 0.0 0.0 0.0
000040 00 00 00 00 00 00 00 00 00 00 00 00 00 00 00 00
       0.0 0.0 0.0 0.0 0.0 0.0 0.0 0.0
000050 00 00 00 00 00 00 00 00 00 00 00 00 00 00 00 00
       0.0 0.0 0.0 0.0 0.0 0.0 0.0 0.0
000060 00 00 00 00 00 00 00 00 00 00 00 00 00 00 00 00
       0.0 0.0 0.0 0.0 0.0 0.0 0.0 0.0
000070 00 00 00 00 00 00 00 00 00 00 00 00 00 00 00 00
       0.0 0.0 0.0 0.0 0.0 0.0 0.0 0.0
000080 00 00 00 00 00 00 00 00 00 00 00 00 00 00 00 00
       0.0 0.0 0.0 0.0 0.0 0.0 0.0 0.0
000090 00 00 00 00 00 00 00 00 00 00 00 00 00 00 00 00
       0.0 0.0 0.0 0.0 0.0 0.0 0.0 0.0
0000a0 00 00 00 00 00 00 00 00 00 00 00 00 00 00 00 00
       0.0 0.0 0.0 0.0 0.0 0.0 0.0 0.0
0000b0 00 00 00 00 00 00 00 00 00 00 00 00 00 00 00 00
       0.0 0.0 0.0 0.0 0.0 0.0 0.0 0.0
0000c0 00 00 00 00 00 00 00 00 00 00 00 00 00 00 00 00
       0.0 0.0 0.0 0.0 0.0 0.0 0.0 0.0
0000d0 00 00 00 00 00 00 00 00 00 00 00 00 00 00 00 00
       0.0 0.0 0.0 0.0 0.0 0.0 0.0 0.0
0000e0 00 00 00 00 00 00 00 00 00 00 00 00 00 00 00 00
       0.0 0.0 0.0 0.0 0.0 0.0 0.0 0.0
0000f0 00 00 00 00 00 00 00 00 00 00 00 00 00 00 00 00
       0.0 0.0 0.0 0.0 0.0 0.0 0.0 0.0

model_2/separable_conv2d_4/separable_conv2d/depthwise1 f2 [1, 3, 3, 128]
000000 f6 1a 6f 28 42 ab 92 a9 ff af 1c a9 dc 13 6b 9d
       0.003399 0.03464 -0.0567 -0.04352 -0.12494 -0.03992 0.0009594 -0.00529
000010 f2 a4 a2 2c 73 2d 75 ab e8 29 66 2e 78 ae 7a 8e
       -0.01932 0.0724 0.08514 -0.05826 0.04614 0.1 -0.1011 -0.0003953
000020 10 ab 07 ad ec a2 58 a4 27 25 7c a8 bf b0 85 a9
       -0.05518 -0.07855 -0.01352 -0.01697 0.02013 -0.03503 -0.1483 -0.04312
000030 50 2b 57 2f 52 28 74 2d 49 2e 31 a2 2e 29 19 9c
       0.05713 0.1147 0.03375 0.0852 0.0982 -0.01209 0.04047 -0.004
000040 57 23 79 25 76 a8 03 2d 1c 2c 0a b0 6f a6 ee a6
       0.014336 0.02138 -0.03485 0.0783 0.0642 -0.1262 -0.02513 -0.02707
000050 77 2c 78 ae e1 aa 63 29 8d 2b 0c 24 2a ab 0c 9a
       0.06976 -0.1011 -0.05374 0.04208 0.059 0.01581 -0.05597 -0.002953
000060 2e 2a 6b 1d 31 9c 14 a5 2a ad 16 ad 33 26 45 28
       0.04828 0.00529 -0.004093 -0.01984 -0.0807 -0.07947 0.02422 0.03336
000070 a2 a8 40 2a e7 26 5c 29 b6 29 e0 a2 e9 ab d0 1a
       -0.0362 0.04883 0.02696 0.04187 0.04462 -0.01343 -0.0618 0.003326
000080 6c ab 70 ad d5 26 2a 10 e3 a8 56 9f 5e a8 22 2a
       -0.05798 -0.08496 0.02669 0.0005083 -0.03818 -0.007164 -0.03412 0.0479
000090 26 2c 78 2c 11 a8 3a 24 33 29 5a 2b dc aa 95 9b
       0.0648 0.0698 -0.03177 0.01651 0.04062 0.05743 -0.0536 -0.003702
0000a0 37 2c a6 29 31 ac 92 ac e0 27 b9 a5 fe a4 a8 27
       0.06586 0.04413 -0.0655 -0.0714 0.03076 -0.02235 -0.0195 0.0299
0000b0 6a 25 a8 ab fd a9 55 a9 0c 2a 71 aa 76 a0 46 28
       0.02115 -0.0598 -0.04678 -0.04166 0.04724 -0.05032 -0.00871 0.0334
0000c0 1f 20 66 aa e9 ac 07 a8 26 ab 51 22 07 a9 24 2b
       0.00805 -0.05 -0.0767 -0.03146 -0.05585 0.01234 -0.03928 0.0558
0000d0 37 ab f0 9e 0c 2c e1 a8 38 ab 82 29 00 96 5c 27
       -0.05637 -0.006775 0.06323 -0.03812 -0.0564 0.04303 -0.001465 0.02875
0000e0 b1 a4 33 16 67 28 75 ad 3a 2e 2c 2a 5d 2b 51 8b
       -0.01833 0.0015135 0.0344 -0.08527 0.0973 0.04822 0.05753 -0.0002233
0000f0 fd 26 9a ad f3 28 50 2f 0d 2d ef 27 86 ac 0e 27
       0.0273 -0.0875 0.03867 0.11426 0.0789 0.03099 -0.0707 0.02756
000100 84 24 5b 2b e4 aa 17 ac 18 ad 21 a4 86 2e c9 a6
       0.01764 0.05746 -0.05383 -0.0639 -0.0796 -0.01613 0.1019 -0.0265
000110 14 2d 62 20 b1 a1 91 26 83 ac d5 a1 5b 29 34 ab
       0.07935 0.00856 -0.011116 0.02565 -0.0705 -0.01139 0.04184 -0.05627
000120 f1 9e 76 27 39 a0 fc a8 e5 a9 24 2a dc 29 62 29
       -0.00678 0.02914 -0.00825 -0.03894 -0.04605 0.04797 0.04578 0.04205
000130 ab 26 68 a2 3e 2c 07 29 83 29 4c 27 67 29 bf 2a
       0.02605 -0.01251 0.0663 0.03928 0.04306 0.0285 0.0422 0.0527
000140 88 2d 14 2d 9d ac a3 2c ea 28 5d 1f 33 ab 1f ac
       0.0864 0.07935 -0.0721 0.07245 0.0384 0.00719 -0.05624 -0.0644
000150 52 26 23 ad 83 29 35 aa c7 24 73 23 5f 1f 51 29
       0.02469 -0.08026 0.04306 -0.0485 0.01866 0.01455 0.0072 0.04153
000160 3a 2a 3c 1f 77 a4 7f 27 35 25 34 9a a5 a4 08 28
       0.04865 0.007065 -0.01744 0.02928 0.02034 -0.003029 -0.01814 0.0315
000170 ab ab 82 ab 7b 14 4b a5 a6 ab 6f ad 89 a9 cc ab
       -0.0599 -0.05865 0.001094 -0.02068 -0.05975 -0.0849 -0.04324 -0.0609
000180 94 a7 08 ae 80 28 c2 28 54 ab 03 2e 9a aa 3f a0
       -0.0296 -0.09424 0.03516 0.03717 -0.05725 0.09393 -0.05157 -0.00829
000190 42 ac b6 a9 52 a9 3e 2f 74 27 67 2c a6 24 be 28
       -0.0665 -0.04462 -0.04156 0.11316 0.02911 0.0688 0.01816 0.03705
0001a0 d5 29 bd 95 1c a0 46 1e aa 29 e0 aa 94 27 04 a9
       0.04556 -0.001401 -0.008026 0.006126 0.04425 -0.0537 0.0296 -0.03918
0001b0 6d ae ee 23 04 23 4a 2c 4b ab ee 2b 09 99 a1 a8
       -0.1004 0.01549 0.0137 0.067 -0.05698 0.06195 -0.002459 -0.03616
0001c0 e3 a3 e7 26 d0 18 19 26 3c a7 73 2d 29 2a 54 25
       -0.0154 0.02696 0.00235 0.02382 -0.02826 0.08514 0.04813 0.02081
0001d0 c5 29 a9 23 29 17 fb a8 d1 a8 f5 ac 73 1e 02 2c
       0.04507 0.01496 0.001748 -0.0389 -0.03763 -0.07745 0.006298 0.0626
0001e0 71 29 a2 ac 5c 2c e7 ac 50 a5 3a a8 dc ad 4b 29
       0.0425 -0.0724 0.0681 -0.0766 -0.02075 -0.03302 -0.09155 0.04135
0001f0 6e 2a 53 aa 8c ad 0b 29 f8 a9 50 2d 69 a7 eb a5
       0.05023 -0.0494 -0.0867 0.0394 -0.04663 0.083 -0.02895 -0.02312
